{"format": "graph-model", "generatedBy": "2.19.0", "convertedBy": "TensorFlow.js Converter v4.22.0", "signature": {"outputs": {"Identity:0": {"name": "Identity:0"}}}, "modelTopology": {"node": [{"name": "ConstantFolding/model_40/tf.math.divide/truediv_recip", "op": "Const", "attr": {"value": {"tensor": {"dtype": "DT_FLOAT", "tensorShape": {}}}, "dtype": {"type": "DT_FLOAT"}}}, {"name": "model_40/tf.strided_slice_26/ones_like/tensor", "op": "Const", "attr": {"value": {"tensor": {"dtype": "DT_INT64", "tensorShape": {"dim": [{"size": "3"}]}}}, "dtype": {"type": "DT_INT64"}}}, {"name": "model_40/tf.strided_slice_26/StridedSlice/end", "op": "Const", "attr": {"value": {"tensor": {"dtype": "DT_INT64", "tensorShape": {"dim": [{"size": "3"}]}}}, "dtype": {"type": "DT_INT64"}}}, {"name": "model_40/tf.strided_slice_26/ones_like", "op": "Const", "attr": {"value": {"tensor": {"dtype": "DT_INT64", "tensorShape": {"dim": [{"size": "3"}]}}}, "dtype": {"type": "DT_INT64"}}}, {"name": "model_40/tf.math.add_122/Add/y", "op": "Const", "attr": {"value": {"tensor": {"dtype": "DT_FLOAT", "tensorShape": {"dim": [{"size": "1"}, {"size": "2"}, {"size": "8400"}]}}}, "dtype": {"type": "DT_FLOAT"}}}, {"name": "model_40/37009", "op": "Const", "attr": {"value": {"tensor": {"dtype": "DT_FLOAT", "tensorShape": {"dim": [{"size": "1"}, {"size": "2"}, {"size": "8400"}]}}}, "dtype": {"type": "DT_FLOAT"}}}, {"name": "model_40/tf.strided_slice_23/StridedSlice/begin", "op": "Const", "attr": {"value": {"tensor": {"dtype": "DT_INT64", "tensorShape": {"dim": [{"size": "3"}]}}}, "dtype": {"type": "DT_INT64"}}}, {"name": "model_40/tf.strided_slice_23/StridedSlice/end", "op": "Const", "attr": {"value": {"tensor": {"dtype": "DT_INT64", "tensorShape": {"dim": [{"size": "3"}]}}}, "dtype": {"type": "DT_INT64"}}}, {"name": "model_40/tf.strided_slice_23/StridedSlice/strides", "op": "Const", "attr": {"value": {"tensor": {"dtype": "DT_INT64", "tensorShape": {"dim": [{"size": "3"}]}}}, "dtype": {"type": "DT_INT64"}}}, {"name": "model_40/tf.reshape_41/Reshape/shape", "op": "Const", "attr": {"value": {"tensor": {"dtype": "DT_INT32", "tensorShape": {"dim": [{"size": "4"}]}}}, "dtype": {"type": "DT_INT32"}}}, {"name": "model_40/tf.compat.v1.transpose_156/transpose/perm", "op": "Const", "attr": {"value": {"tensor": {"dtype": "DT_INT32", "tensorShape": {"dim": [{"size": "4"}]}}}, "dtype": {"type": "DT_INT32"}}}, {"name": "model_40/tf.compat.v1.transpose_157/transpose/perm", "op": "Const", "attr": {"value": {"tensor": {"dtype": "DT_INT32", "tensorShape": {"dim": [{"size": "4"}]}}}, "dtype": {"type": "DT_INT32"}}}, {"name": "model_40/tf.nn.convolution_202/convolution/filter", "op": "Const", "attr": {"value": {"tensor": {"dtype": "DT_FLOAT", "tensorShape": {"dim": [{"size": "1"}, {"size": "1"}, {"size": "16"}, {"size": "1"}]}}}, "dtype": {"type": "DT_FLOAT"}}}, {"name": "model_40/tf.compat.v1.transpose_162/transpose/perm", "op": "Const", "attr": {"value": {"tensor": {"dtype": "DT_INT32", "tensorShape": {"dim": [{"size": "4"}]}}}, "dtype": {"type": "DT_INT32"}}}, {"name": "model_40/tf.reshape_44/Reshape/shape", "op": "Const", "attr": {"value": {"tensor": {"dtype": "DT_INT32", "tensorShape": {"dim": [{"size": "3"}]}}}, "dtype": {"type": "DT_INT32"}}}, {"name": "model_40/tf.strided_slice_25/ones_like/tensor", "op": "Const", "attr": {"value": {"tensor": {"dtype": "DT_INT64", "tensorShape": {"dim": [{"size": "3"}]}}}, "dtype": {"type": "DT_INT64"}}}, {"name": "model_40/tf.strided_slice_25/StridedSlice/end", "op": "Const", "attr": {"value": {"tensor": {"dtype": "DT_INT64", "tensorShape": {"dim": [{"size": "3"}]}}}, "dtype": {"type": "DT_INT64"}}}, {"name": "model_40/tf.strided_slice_25/ones_like", "op": "Const", "attr": {"value": {"tensor": {"dtype": "DT_INT64", "tensorShape": {"dim": [{"size": "3"}]}}}, "dtype": {"type": "DT_INT64"}}}, {"name": "model_40/tf.concat_36/concat/axis", "op": "Const", "attr": {"value": {"tensor": {"dtype": "DT_INT32", "tensorShape": {}}}, "dtype": {"type": "DT_INT32"}}}, {"name": "model_40/tf.math.multiply_336/Mul/y", "op": "Const", "attr": {"value": {"tensor": {"dtype": "DT_FLOAT", "tensorShape": {"dim": [{"size": "1"}, {"size": "1"}, {"size": "8400"}]}}}, "dtype": {"type": "DT_FLOAT"}}}, {"name": "model_40/tf.nn.convolution_167/convolution/filter", "op": "Const", "attr": {"value": {"tensor": {"dtype": "DT_FLOAT", "tensorShape": {"dim": [{"size": "3"}, {"size": "3"}, {"size": "64"}, {"size": "64"}]}}}, "dtype": {"type": "DT_FLOAT"}}}, {"name": "model_40/tf.math.add_66/Add/y", "op": "Const", "attr": {"value": {"tensor": {"dtype": "DT_FLOAT", "tensorShape": {"dim": [{"size": "64"}]}}}, "dtype": {"type": "DT_FLOAT"}}}, {"name": "model_40/tf.nn.convolution_169/convolution/filter", "op": "Const", "attr": {"value": {"tensor": {"dtype": "DT_FLOAT", "tensorShape": {"dim": [{"size": "3"}, {"size": "3"}, {"size": "64"}, {"size": "64"}]}}}, "dtype": {"type": "DT_FLOAT"}}}, {"name": "model_40/tf.math.add_69/Add/y", "op": "Const", "attr": {"value": {"tensor": {"dtype": "DT_FLOAT", "tensorShape": {"dim": [{"size": "64"}]}}}, "dtype": {"type": "DT_FLOAT"}}}, {"name": "model_40/tf.nn.convolution_173/convolution/filter", "op": "Const", "attr": {"value": {"tensor": {"dtype": "DT_FLOAT", "tensorShape": {"dim": [{"size": "1"}, {"size": "1"}, {"size": "64"}, {"size": "64"}]}}}, "dtype": {"type": "DT_FLOAT"}}}, {"name": "model_40/tf.math.add_73/Add/y", "op": "Const", "attr": {"value": {"tensor": {"dtype": "DT_FLOAT", "tensorShape": {"dim": [{"size": "64"}]}}}, "dtype": {"type": "DT_FLOAT"}}}, {"name": "model_40/tf.compat.v1.nn.depthwise_conv2d_8/depthwise/filter_in", "op": "Const", "attr": {"value": {"tensor": {"dtype": "DT_FLOAT", "tensorShape": {"dim": [{"size": "3"}, {"size": "3"}, {"size": "64"}, {"size": "1"}]}}}, "dtype": {"type": "DT_FLOAT"}}}, {"name": "model_40/tf.math.add_67/Add/y", "op": "Const", "attr": {"value": {"tensor": {"dtype": "DT_FLOAT", "tensorShape": {"dim": [{"size": "64"}]}}}, "dtype": {"type": "DT_FLOAT"}}}, {"name": "model_40/tf.nn.convolution_170/convolution/filter", "op": "Const", "attr": {"value": {"tensor": {"dtype": "DT_FLOAT", "tensorShape": {"dim": [{"size": "1"}, {"size": "1"}, {"size": "64"}, {"size": "64"}]}}}, "dtype": {"type": "DT_FLOAT"}}}, {"name": "model_40/tf.math.add_70/Add/y", "op": "Const", "attr": {"value": {"tensor": {"dtype": "DT_FLOAT", "tensorShape": {"dim": [{"size": "64"}]}}}, "dtype": {"type": "DT_FLOAT"}}}, {"name": "model_40/tf.compat.v1.nn.depthwise_conv2d_9/depthwise/filter_in", "op": "Const", "attr": {"value": {"tensor": {"dtype": "DT_FLOAT", "tensorShape": {"dim": [{"size": "3"}, {"size": "3"}, {"size": "64"}, {"size": "1"}]}}}, "dtype": {"type": "DT_FLOAT"}}}, {"name": "model_40/tf.math.add_74/Add/y", "op": "Const", "attr": {"value": {"tensor": {"dtype": "DT_FLOAT", "tensorShape": {"dim": [{"size": "64"}]}}}, "dtype": {"type": "DT_FLOAT"}}}, {"name": "model_40/tf.nn.convolution_175/convolution/filter", "op": "Const", "attr": {"value": {"tensor": {"dtype": "DT_FLOAT", "tensorShape": {"dim": [{"size": "1"}, {"size": "1"}, {"size": "64"}, {"size": "64"}]}}}, "dtype": {"type": "DT_FLOAT"}}}, {"name": "model_40/tf.math.add_76/Add/y", "op": "Const", "attr": {"value": {"tensor": {"dtype": "DT_FLOAT", "tensorShape": {"dim": [{"size": "64"}]}}}, "dtype": {"type": "DT_FLOAT"}}}, {"name": "model_40/tf.nn.convolution_176/convolution/filter", "op": "Const", "attr": {"value": {"tensor": {"dtype": "DT_FLOAT", "tensorShape": {"dim": [{"size": "1"}, {"size": "1"}, {"size": "64"}, {"size": "1"}]}}}, "dtype": {"type": "DT_FLOAT"}}}, {"name": "model_40/tf.math.add_78/Add/y", "op": "Const", "attr": {"value": {"tensor": {"dtype": "DT_FLOAT", "tensorShape": {"dim": [{"size": "1"}]}}}, "dtype": {"type": "DT_FLOAT"}}}, {"name": "model_40/tf.concat_20/concat/axis", "op": "Const", "attr": {"value": {"tensor": {"dtype": "DT_INT32", "tensorShape": {}}}, "dtype": {"type": "DT_INT32"}}}, {"name": "model_40/tf.compat.v1.transpose_80/transpose/perm", "op": "Const", "attr": {"value": {"tensor": {"dtype": "DT_INT32", "tensorShape": {"dim": [{"size": "4"}]}}}, "dtype": {"type": "DT_INT32"}}}, {"name": "model_40/tf.reshape_14/Reshape/shape", "op": "Const", "attr": {"value": {"tensor": {"dtype": "DT_INT32", "tensorShape": {"dim": [{"size": "3"}]}}}, "dtype": {"type": "DT_INT32"}}}, {"name": "model_40/tf.nn.convolution_181/convolution/filter", "op": "Const", "attr": {"value": {"tensor": {"dtype": "DT_FLOAT", "tensorShape": {"dim": [{"size": "3"}, {"size": "3"}, {"size": "128"}, {"size": "64"}]}}}, "dtype": {"type": "DT_FLOAT"}}}, {"name": "model_40/tf.math.add_89/Add/y", "op": "Const", "attr": {"value": {"tensor": {"dtype": "DT_FLOAT", "tensorShape": {"dim": [{"size": "64"}]}}}, "dtype": {"type": "DT_FLOAT"}}}, {"name": "model_40/tf.nn.convolution_183/convolution/filter", "op": "Const", "attr": {"value": {"tensor": {"dtype": "DT_FLOAT", "tensorShape": {"dim": [{"size": "3"}, {"size": "3"}, {"size": "64"}, {"size": "64"}]}}}, "dtype": {"type": "DT_FLOAT"}}}, {"name": "model_40/tf.math.add_92/Add/y", "op": "Const", "attr": {"value": {"tensor": {"dtype": "DT_FLOAT", "tensorShape": {"dim": [{"size": "64"}]}}}, "dtype": {"type": "DT_FLOAT"}}}, {"name": "model_40/tf.nn.convolution_187/convolution/filter", "op": "Const", "attr": {"value": {"tensor": {"dtype": "DT_FLOAT", "tensorShape": {"dim": [{"size": "1"}, {"size": "1"}, {"size": "64"}, {"size": "64"}]}}}, "dtype": {"type": "DT_FLOAT"}}}, {"name": "model_40/tf.math.add_96/Add/y", "op": "Const", "attr": {"value": {"tensor": {"dtype": "DT_FLOAT", "tensorShape": {"dim": [{"size": "64"}]}}}, "dtype": {"type": "DT_FLOAT"}}}, {"name": "model_40/tf.compat.v1.nn.depthwise_conv2d_13/depthwise/filter_in", "op": "Const", "attr": {"value": {"tensor": {"dtype": "DT_FLOAT", "tensorShape": {"dim": [{"size": "3"}, {"size": "3"}, {"size": "128"}, {"size": "1"}]}}}, "dtype": {"type": "DT_FLOAT"}}}, {"name": "model_40/tf.math.add_90/Add/y", "op": "Const", "attr": {"value": {"tensor": {"dtype": "DT_FLOAT", "tensorShape": {"dim": [{"size": "128"}]}}}, "dtype": {"type": "DT_FLOAT"}}}, {"name": "model_40/tf.nn.convolution_184/convolution/filter", "op": "Const", "attr": {"value": {"tensor": {"dtype": "DT_FLOAT", "tensorShape": {"dim": [{"size": "1"}, {"size": "1"}, {"size": "128"}, {"size": "64"}]}}}, "dtype": {"type": "DT_FLOAT"}}}, {"name": "model_40/tf.math.add_93/Add/y", "op": "Const", "attr": {"value": {"tensor": {"dtype": "DT_FLOAT", "tensorShape": {"dim": [{"size": "64"}]}}}, "dtype": {"type": "DT_FLOAT"}}}, {"name": "model_40/tf.compat.v1.nn.depthwise_conv2d_14/depthwise/filter_in", "op": "Const", "attr": {"value": {"tensor": {"dtype": "DT_FLOAT", "tensorShape": {"dim": [{"size": "3"}, {"size": "3"}, {"size": "64"}, {"size": "1"}]}}}, "dtype": {"type": "DT_FLOAT"}}}, {"name": "model_40/tf.math.add_97/Add/y", "op": "Const", "attr": {"value": {"tensor": {"dtype": "DT_FLOAT", "tensorShape": {"dim": [{"size": "64"}]}}}, "dtype": {"type": "DT_FLOAT"}}}, {"name": "model_40/tf.nn.convolution_189/convolution/filter", "op": "Const", "attr": {"value": {"tensor": {"dtype": "DT_FLOAT", "tensorShape": {"dim": [{"size": "1"}, {"size": "1"}, {"size": "64"}, {"size": "64"}]}}}, "dtype": {"type": "DT_FLOAT"}}}, {"name": "model_40/tf.math.add_99/Add/y", "op": "Const", "attr": {"value": {"tensor": {"dtype": "DT_FLOAT", "tensorShape": {"dim": [{"size": "64"}]}}}, "dtype": {"type": "DT_FLOAT"}}}, {"name": "model_40/tf.nn.convolution_190/convolution/filter", "op": "Const", "attr": {"value": {"tensor": {"dtype": "DT_FLOAT", "tensorShape": {"dim": [{"size": "1"}, {"size": "1"}, {"size": "64"}, {"size": "1"}]}}}, "dtype": {"type": "DT_FLOAT"}}}, {"name": "model_40/tf.math.add_101/Add/y", "op": "Const", "attr": {"value": {"tensor": {"dtype": "DT_FLOAT", "tensorShape": {"dim": [{"size": "1"}]}}}, "dtype": {"type": "DT_FLOAT"}}}, {"name": "model_40/tf.concat_25/concat/axis", "op": "Const", "attr": {"value": {"tensor": {"dtype": "DT_INT32", "tensorShape": {}}}, "dtype": {"type": "DT_INT32"}}}, {"name": "model_40/tf.compat.v1.transpose_106/transpose/perm", "op": "Const", "attr": {"value": {"tensor": {"dtype": "DT_INT32", "tensorShape": {"dim": [{"size": "4"}]}}}, "dtype": {"type": "DT_INT32"}}}, {"name": "model_40/tf.reshape_20/Reshape/shape", "op": "Const", "attr": {"value": {"tensor": {"dtype": "DT_INT32", "tensorShape": {"dim": [{"size": "3"}]}}}, "dtype": {"type": "DT_INT32"}}}, {"name": "model_40/tf.nn.convolution_194/convolution/filter", "op": "Const", "attr": {"value": {"tensor": {"dtype": "DT_FLOAT", "tensorShape": {"dim": [{"size": "3"}, {"size": "3"}, {"size": "256"}, {"size": "64"}]}}}, "dtype": {"type": "DT_FLOAT"}}}, {"name": "model_40/tf.math.add_111/Add/y", "op": "Const", "attr": {"value": {"tensor": {"dtype": "DT_FLOAT", "tensorShape": {"dim": [{"size": "64"}]}}}, "dtype": {"type": "DT_FLOAT"}}}, {"name": "model_40/tf.nn.convolution_196/convolution/filter", "op": "Const", "attr": {"value": {"tensor": {"dtype": "DT_FLOAT", "tensorShape": {"dim": [{"size": "3"}, {"size": "3"}, {"size": "64"}, {"size": "64"}]}}}, "dtype": {"type": "DT_FLOAT"}}}, {"name": "model_40/tf.math.add_114/Add/y", "op": "Const", "attr": {"value": {"tensor": {"dtype": "DT_FLOAT", "tensorShape": {"dim": [{"size": "64"}]}}}, "dtype": {"type": "DT_FLOAT"}}}, {"name": "model_40/tf.nn.convolution_199/convolution/filter", "op": "Const", "attr": {"value": {"tensor": {"dtype": "DT_FLOAT", "tensorShape": {"dim": [{"size": "1"}, {"size": "1"}, {"size": "64"}, {"size": "64"}]}}}, "dtype": {"type": "DT_FLOAT"}}}, {"name": "model_40/tf.math.add_117/Add/y", "op": "Const", "attr": {"value": {"tensor": {"dtype": "DT_FLOAT", "tensorShape": {"dim": [{"size": "64"}]}}}, "dtype": {"type": "DT_FLOAT"}}}, {"name": "model_40/tf.compat.v1.nn.depthwise_conv2d_18/depthwise/filter_in", "op": "Const", "attr": {"value": {"tensor": {"dtype": "DT_FLOAT", "tensorShape": {"dim": [{"size": "3"}, {"size": "3"}, {"size": "256"}, {"size": "1"}]}}}, "dtype": {"type": "DT_FLOAT"}}}, {"name": "model_40/tf.math.add_112/Add/y", "op": "Const", "attr": {"value": {"tensor": {"dtype": "DT_FLOAT", "tensorShape": {"dim": [{"size": "256"}]}}}, "dtype": {"type": "DT_FLOAT"}}}, {"name": "model_40/tf.nn.convolution_197/convolution/filter", "op": "Const", "attr": {"value": {"tensor": {"dtype": "DT_FLOAT", "tensorShape": {"dim": [{"size": "1"}, {"size": "1"}, {"size": "256"}, {"size": "64"}]}}}, "dtype": {"type": "DT_FLOAT"}}}, {"name": "model_40/tf.math.add_115/Add/y", "op": "Const", "attr": {"value": {"tensor": {"dtype": "DT_FLOAT", "tensorShape": {"dim": [{"size": "64"}]}}}, "dtype": {"type": "DT_FLOAT"}}}, {"name": "model_40/tf.compat.v1.nn.depthwise_conv2d_19/depthwise/filter_in", "op": "Const", "attr": {"value": {"tensor": {"dtype": "DT_FLOAT", "tensorShape": {"dim": [{"size": "3"}, {"size": "3"}, {"size": "64"}, {"size": "1"}]}}}, "dtype": {"type": "DT_FLOAT"}}}, {"name": "model_40/tf.math.add_118/Add/y", "op": "Const", "attr": {"value": {"tensor": {"dtype": "DT_FLOAT", "tensorShape": {"dim": [{"size": "64"}]}}}, "dtype": {"type": "DT_FLOAT"}}}, {"name": "model_40/tf.nn.convolution_200/convolution/filter", "op": "Const", "attr": {"value": {"tensor": {"dtype": "DT_FLOAT", "tensorShape": {"dim": [{"size": "1"}, {"size": "1"}, {"size": "64"}, {"size": "64"}]}}}, "dtype": {"type": "DT_FLOAT"}}}, {"name": "model_40/tf.math.add_119/Add/y", "op": "Const", "attr": {"value": {"tensor": {"dtype": "DT_FLOAT", "tensorShape": {"dim": [{"size": "64"}]}}}, "dtype": {"type": "DT_FLOAT"}}}, {"name": "model_40/tf.nn.convolution_201/convolution/filter", "op": "Const", "attr": {"value": {"tensor": {"dtype": "DT_FLOAT", "tensorShape": {"dim": [{"size": "1"}, {"size": "1"}, {"size": "64"}, {"size": "1"}]}}}, "dtype": {"type": "DT_FLOAT"}}}, {"name": "model_40/tf.math.add_120/Add/y", "op": "Const", "attr": {"value": {"tensor": {"dtype": "DT_FLOAT", "tensorShape": {"dim": [{"size": "1"}]}}}, "dtype": {"type": "DT_FLOAT"}}}, {"name": "model_40/tf.concat_30/concat/axis", "op": "Const", "attr": {"value": {"tensor": {"dtype": "DT_INT32", "tensorShape": {}}}, "dtype": {"type": "DT_INT32"}}}, {"name": "model_40/tf.compat.v1.transpose_145/transpose/perm", "op": "Const", "attr": {"value": {"tensor": {"dtype": "DT_INT32", "tensorShape": {"dim": [{"size": "4"}]}}}, "dtype": {"type": "DT_INT32"}}}, {"name": "model_40/tf.reshape_35/Reshape/shape", "op": "Const", "attr": {"value": {"tensor": {"dtype": "DT_INT32", "tensorShape": {"dim": [{"size": "3"}]}}}, "dtype": {"type": "DT_INT32"}}}, {"name": "model_40/tf.concat_32/concat/axis", "op": "Const", "attr": {"value": {"tensor": {"dtype": "DT_INT32", "tensorShape": {}}}, "dtype": {"type": "DT_INT32"}}}, {"name": "model_40/tf.strided_slice_24/StridedSlice/begin", "op": "Const", "attr": {"value": {"tensor": {"dtype": "DT_INT64", "tensorShape": {"dim": [{"size": "3"}]}}}, "dtype": {"type": "DT_INT64"}}}, {"name": "model_40/tf.strided_slice_24/StridedSlice/end", "op": "Const", "attr": {"value": {"tensor": {"dtype": "DT_INT64", "tensorShape": {"dim": [{"size": "3"}]}}}, "dtype": {"type": "DT_INT64"}}}, {"name": "model_40/tf.strided_slice_24/StridedSlice/strides", "op": "Const", "attr": {"value": {"tensor": {"dtype": "DT_INT64", "tensorShape": {"dim": [{"size": "3"}]}}}, "dtype": {"type": "DT_INT64"}}}, {"name": "model_40/tf.strided_slice_21/StridedSlice/begin", "op": "Const", "attr": {"value": {"tensor": {"dtype": "DT_INT64", "tensorShape": {"dim": [{"size": "4"}]}}}, "dtype": {"type": "DT_INT64"}}}, {"name": "model_40/tf.strided_slice_21/StridedSlice/end", "op": "Const", "attr": {"value": {"tensor": {"dtype": "DT_INT64", "tensorShape": {"dim": [{"size": "4"}]}}}, "dtype": {"type": "DT_INT64"}}}, {"name": "model_40/tf.strided_slice_21/StridedSlice/strides", "op": "Const", "attr": {"value": {"tensor": {"dtype": "DT_INT64", "tensorShape": {"dim": [{"size": "4"}]}}}, "dtype": {"type": "DT_INT64"}}}, {"name": "model_40/tf.math.multiply_322/Mul/y", "op": "Const", "attr": {"value": {"tensor": {"dtype": "DT_FLOAT", "tensorShape": {}}}, "dtype": {"type": "DT_FLOAT"}}}, {"name": "model_40/tf.math.add_121/Add/y", "op": "Const", "attr": {"value": {"tensor": {"dtype": "DT_FLOAT", "tensorShape": {"dim": [{"size": "1"}, {"size": "1"}, {"size": "2"}, {"size": "8400"}]}}}, "dtype": {"type": "DT_FLOAT"}}}, {"name": "model_40/tf.math.multiply_323/Mul/y", "op": "Const", "attr": {"value": {"tensor": {"dtype": "DT_FLOAT", "tensorShape": {"dim": [{"size": "1"}, {"size": "1"}, {"size": "1"}, {"size": "8400"}]}}}, "dtype": {"type": "DT_FLOAT"}}}, {"name": "model_40/tf.nn.convolution_166/convolution/filter", "op": "Const", "attr": {"value": {"tensor": {"dtype": "DT_FLOAT", "tensorShape": {"dim": [{"size": "3"}, {"size": "3"}, {"size": "64"}, {"size": "51"}]}}}, "dtype": {"type": "DT_FLOAT"}}}, {"name": "model_40/tf.math.add_65/Add/y", "op": "Const", "attr": {"value": {"tensor": {"dtype": "DT_FLOAT", "tensorShape": {"dim": [{"size": "51"}]}}}, "dtype": {"type": "DT_FLOAT"}}}, {"name": "model_40/tf.nn.convolution_168/convolution/filter", "op": "Const", "attr": {"value": {"tensor": {"dtype": "DT_FLOAT", "tensorShape": {"dim": [{"size": "3"}, {"size": "3"}, {"size": "51"}, {"size": "51"}]}}}, "dtype": {"type": "DT_FLOAT"}}}, {"name": "model_40/tf.math.add_68/Add/y", "op": "Const", "attr": {"value": {"tensor": {"dtype": "DT_FLOAT", "tensorShape": {"dim": [{"size": "51"}]}}}, "dtype": {"type": "DT_FLOAT"}}}, {"name": "model_40/tf.nn.convolution_172/convolution/filter", "op": "Const", "attr": {"value": {"tensor": {"dtype": "DT_FLOAT", "tensorShape": {"dim": [{"size": "1"}, {"size": "1"}, {"size": "51"}, {"size": "51"}]}}}, "dtype": {"type": "DT_FLOAT"}}}, {"name": "model_40/tf.math.add_72/Add/y", "op": "Const", "attr": {"value": {"tensor": {"dtype": "DT_FLOAT", "tensorShape": {"dim": [{"size": "51"}]}}}, "dtype": {"type": "DT_FLOAT"}}}, {"name": "model_40/tf.compat.v1.transpose_71/transpose/perm", "op": "Const", "attr": {"value": {"tensor": {"dtype": "DT_INT32", "tensorShape": {"dim": [{"size": "4"}]}}}, "dtype": {"type": "DT_INT32"}}}, {"name": "model_40/tf.reshape_11/Reshape/shape", "op": "Const", "attr": {"value": {"tensor": {"dtype": "DT_INT32", "tensorShape": {"dim": [{"size": "3"}]}}}, "dtype": {"type": "DT_INT32"}}}, {"name": "model_40/tf.nn.convolution_180/convolution/filter", "op": "Const", "attr": {"value": {"tensor": {"dtype": "DT_FLOAT", "tensorShape": {"dim": [{"size": "3"}, {"size": "3"}, {"size": "128"}, {"size": "51"}]}}}, "dtype": {"type": "DT_FLOAT"}}}, {"name": "model_40/tf.math.add_88/Add/y", "op": "Const", "attr": {"value": {"tensor": {"dtype": "DT_FLOAT", "tensorShape": {"dim": [{"size": "51"}]}}}, "dtype": {"type": "DT_FLOAT"}}}, {"name": "model_40/tf.nn.convolution_182/convolution/filter", "op": "Const", "attr": {"value": {"tensor": {"dtype": "DT_FLOAT", "tensorShape": {"dim": [{"size": "3"}, {"size": "3"}, {"size": "51"}, {"size": "51"}]}}}, "dtype": {"type": "DT_FLOAT"}}}, {"name": "model_40/tf.math.add_91/Add/y", "op": "Const", "attr": {"value": {"tensor": {"dtype": "DT_FLOAT", "tensorShape": {"dim": [{"size": "51"}]}}}, "dtype": {"type": "DT_FLOAT"}}}, {"name": "model_40/tf.nn.convolution_186/convolution/filter", "op": "Const", "attr": {"value": {"tensor": {"dtype": "DT_FLOAT", "tensorShape": {"dim": [{"size": "1"}, {"size": "1"}, {"size": "51"}, {"size": "51"}]}}}, "dtype": {"type": "DT_FLOAT"}}}, {"name": "model_40/tf.math.add_95/Add/y", "op": "Const", "attr": {"value": {"tensor": {"dtype": "DT_FLOAT", "tensorShape": {"dim": [{"size": "51"}]}}}, "dtype": {"type": "DT_FLOAT"}}}, {"name": "model_40/tf.compat.v1.transpose_97/transpose/perm", "op": "Const", "attr": {"value": {"tensor": {"dtype": "DT_INT32", "tensorShape": {"dim": [{"size": "4"}]}}}, "dtype": {"type": "DT_INT32"}}}, {"name": "model_40/tf.reshape_17/Reshape/shape", "op": "Const", "attr": {"value": {"tensor": {"dtype": "DT_INT32", "tensorShape": {"dim": [{"size": "3"}]}}}, "dtype": {"type": "DT_INT32"}}}, {"name": "model_40/tf.strided_slice_19/ones_like/tensor", "op": "Const", "attr": {"value": {"tensor": {"dtype": "DT_INT64", "tensorShape": {"dim": [{"size": "4"}]}}}, "dtype": {"type": "DT_INT64"}}}, {"name": "model_40/tf.strided_slice_19/StridedSlice/end", "op": "Const", "attr": {"value": {"tensor": {"dtype": "DT_INT64", "tensorShape": {"dim": [{"size": "4"}]}}}, "dtype": {"type": "DT_INT64"}}}, {"name": "model_40/tf.strided_slice_19/ones_like", "op": "Const", "attr": {"value": {"tensor": {"dtype": "DT_INT64", "tensorShape": {"dim": [{"size": "4"}]}}}, "dtype": {"type": "DT_INT64"}}}, {"name": "model_40/tf.math.multiply_272/Mul/y", "op": "Const", "attr": {"value": {"tensor": {"dtype": "DT_FLOAT", "tensorShape": {"dim": [{"size": "1"}, {"size": "1"}, {"size": "1"}, {"size": "1"}]}}}, "dtype": {"type": "DT_FLOAT"}}}, {"name": "model_40/tf.math.multiply_278/Mul/y", "op": "Const", "attr": {"value": {"tensor": {"dtype": "DT_FLOAT", "tensorShape": {"dim": [{"size": "1"}, {"size": "1"}, {"size": "1"}, {"size": "1"}]}}}, "dtype": {"type": "DT_FLOAT"}}}, {"name": "model_40/tf.nn.convolution_188/convolution/filter", "op": "Const", "attr": {"value": {"tensor": {"dtype": "DT_FLOAT", "tensorShape": {"dim": [{"size": "1"}, {"size": "1"}, {"size": "128"}, {"size": "32"}]}}}, "dtype": {"type": "DT_FLOAT"}}}, {"name": "model_40/tf.math.add_98/Add/y", "op": "Const", "attr": {"value": {"tensor": {"dtype": "DT_FLOAT", "tensorShape": {"dim": [{"size": "32"}]}}}, "dtype": {"type": "DT_FLOAT"}}}, {"name": "model_40/tf.compat.v1.nn.depthwise_conv2d_15/depthwise/filter_in", "op": "Const", "attr": {"value": {"tensor": {"dtype": "DT_FLOAT", "tensorShape": {"dim": [{"size": "5"}, {"size": "5"}, {"size": "32"}, {"size": "1"}]}}}, "dtype": {"type": "DT_FLOAT"}}}, {"name": "model_40/tf.math.add_100/Add/y", "op": "Const", "attr": {"value": {"tensor": {"dtype": "DT_FLOAT", "tensorShape": {"dim": [{"size": "32"}]}}}, "dtype": {"type": "DT_FLOAT"}}}, {"name": "model_40/tf.concat_26/concat/axis", "op": "Const", "attr": {"value": {"tensor": {"dtype": "DT_INT32", "tensorShape": {}}}, "dtype": {"type": "DT_INT32"}}}, {"name": "model_40/tf.nn.convolution_191/convolution/filter", "op": "Const", "attr": {"value": {"tensor": {"dtype": "DT_FLOAT", "tensorShape": {"dim": [{"size": "1"}, {"size": "1"}, {"size": "64"}, {"size": "64"}]}}}, "dtype": {"type": "DT_FLOAT"}}}, {"name": "model_40/tf.math.add_102/Add/y", "op": "Const", "attr": {"value": {"tensor": {"dtype": "DT_FLOAT", "tensorShape": {"dim": [{"size": "64"}]}}}, "dtype": {"type": "DT_FLOAT"}}}, {"name": "model_40/tf.compat.v1.nn.depthwise_conv2d_16/depthwise/filter_in", "op": "Const", "attr": {"value": {"tensor": {"dtype": "DT_FLOAT", "tensorShape": {"dim": [{"size": "5"}, {"size": "5"}, {"size": "64"}, {"size": "1"}]}}}, "dtype": {"type": "DT_FLOAT"}}}, {"name": "model_40/tf.math.add_103/Add/y", "op": "Const", "attr": {"value": {"tensor": {"dtype": "DT_FLOAT", "tensorShape": {"dim": [{"size": "64"}]}}}, "dtype": {"type": "DT_FLOAT"}}}, {"name": "model_40/tf.concat_27/concat/axis", "op": "Const", "attr": {"value": {"tensor": {"dtype": "DT_INT32", "tensorShape": {}}}, "dtype": {"type": "DT_INT32"}}}, {"name": "model_40/tf.strided_slice_17/ones_like/tensor", "op": "Const", "attr": {"value": {"tensor": {"dtype": "DT_INT64", "tensorShape": {"dim": [{"size": "4"}]}}}, "dtype": {"type": "DT_INT64"}}}, {"name": "model_40/tf.strided_slice_17/StridedSlice/end", "op": "Const", "attr": {"value": {"tensor": {"dtype": "DT_INT64", "tensorShape": {"dim": [{"size": "4"}]}}}, "dtype": {"type": "DT_INT64"}}}, {"name": "model_40/tf.strided_slice_17/ones_like", "op": "Const", "attr": {"value": {"tensor": {"dtype": "DT_INT64", "tensorShape": {"dim": [{"size": "4"}]}}}, "dtype": {"type": "DT_INT64"}}}, {"name": "model_40/tf.math.multiply_208/Mul/y", "op": "Const", "attr": {"value": {"tensor": {"dtype": "DT_FLOAT", "tensorShape": {"dim": [{"size": "1"}, {"size": "1"}, {"size": "1"}, {"size": "1"}]}}}, "dtype": {"type": "DT_FLOAT"}}}, {"name": "model_40/tf.math.multiply_214/Mul/y", "op": "Const", "attr": {"value": {"tensor": {"dtype": "DT_FLOAT", "tensorShape": {"dim": [{"size": "1"}, {"size": "1"}, {"size": "1"}, {"size": "1"}]}}}, "dtype": {"type": "DT_FLOAT"}}}, {"name": "model_40/tf.nn.convolution_174/convolution/filter", "op": "Const", "attr": {"value": {"tensor": {"dtype": "DT_FLOAT", "tensorShape": {"dim": [{"size": "1"}, {"size": "1"}, {"size": "64"}, {"size": "16"}]}}}, "dtype": {"type": "DT_FLOAT"}}}, {"name": "model_40/tf.math.add_75/Add/y", "op": "Const", "attr": {"value": {"tensor": {"dtype": "DT_FLOAT", "tensorShape": {"dim": [{"size": "16"}]}}}, "dtype": {"type": "DT_FLOAT"}}}, {"name": "model_40/tf.compat.v1.nn.depthwise_conv2d_10/depthwise/filter_in", "op": "Const", "attr": {"value": {"tensor": {"dtype": "DT_FLOAT", "tensorShape": {"dim": [{"size": "5"}, {"size": "5"}, {"size": "16"}, {"size": "1"}]}}}, "dtype": {"type": "DT_FLOAT"}}}, {"name": "model_40/tf.math.add_77/Add/y", "op": "Const", "attr": {"value": {"tensor": {"dtype": "DT_FLOAT", "tensorShape": {"dim": [{"size": "16"}]}}}, "dtype": {"type": "DT_FLOAT"}}}, {"name": "model_40/tf.concat_21/concat/axis", "op": "Const", "attr": {"value": {"tensor": {"dtype": "DT_INT32", "tensorShape": {}}}, "dtype": {"type": "DT_INT32"}}}, {"name": "model_40/tf.nn.convolution_177/convolution/filter", "op": "Const", "attr": {"value": {"tensor": {"dtype": "DT_FLOAT", "tensorShape": {"dim": [{"size": "1"}, {"size": "1"}, {"size": "32"}, {"size": "32"}]}}}, "dtype": {"type": "DT_FLOAT"}}}, {"name": "model_40/tf.math.add_79/Add/y", "op": "Const", "attr": {"value": {"tensor": {"dtype": "DT_FLOAT", "tensorShape": {"dim": [{"size": "32"}]}}}, "dtype": {"type": "DT_FLOAT"}}}, {"name": "model_40/tf.compat.v1.nn.depthwise_conv2d_11/depthwise/filter_in", "op": "Const", "attr": {"value": {"tensor": {"dtype": "DT_FLOAT", "tensorShape": {"dim": [{"size": "5"}, {"size": "5"}, {"size": "32"}, {"size": "1"}]}}}, "dtype": {"type": "DT_FLOAT"}}}, {"name": "model_40/tf.math.add_80/Add/y", "op": "Const", "attr": {"value": {"tensor": {"dtype": "DT_FLOAT", "tensorShape": {"dim": [{"size": "32"}]}}}, "dtype": {"type": "DT_FLOAT"}}}, {"name": "model_40/tf.concat_22/concat/axis", "op": "Const", "attr": {"value": {"tensor": {"dtype": "DT_INT32", "tensorShape": {}}}, "dtype": {"type": "DT_INT32"}}}, {"name": "model_40/tf.strided_slice_15/ones_like/tensor", "op": "Const", "attr": {"value": {"tensor": {"dtype": "DT_INT64", "tensorShape": {"dim": [{"size": "4"}]}}}, "dtype": {"type": "DT_INT64"}}}, {"name": "model_40/tf.strided_slice_15/StridedSlice/end", "op": "Const", "attr": {"value": {"tensor": {"dtype": "DT_INT64", "tensorShape": {"dim": [{"size": "4"}]}}}, "dtype": {"type": "DT_INT64"}}}, {"name": "model_40/tf.strided_slice_15/ones_like", "op": "Const", "attr": {"value": {"tensor": {"dtype": "DT_INT64", "tensorShape": {"dim": [{"size": "4"}]}}}, "dtype": {"type": "DT_INT64"}}}, {"name": "model_40/tf.image.resize_1/resize/size", "op": "Const", "attr": {"value": {"tensor": {"dtype": "DT_INT32", "tensorShape": {"dim": [{"size": "2"}]}}}, "dtype": {"type": "DT_INT32"}}}, {"name": "model_40/tf.concat_17/concat/axis", "op": "Const", "attr": {"value": {"tensor": {"dtype": "DT_INT32", "tensorShape": {}}}, "dtype": {"type": "DT_INT32"}}}, {"name": "model_40/tf.nn.convolution_161/convolution/filter", "op": "Const", "attr": {"value": {"tensor": {"dtype": "DT_FLOAT", "tensorShape": {"dim": [{"size": "1"}, {"size": "1"}, {"size": "256"}, {"size": "64"}]}}}, "dtype": {"type": "DT_FLOAT"}}}, {"name": "model_40/tf.math.add_58/Add/y", "op": "Const", "attr": {"value": {"tensor": {"dtype": "DT_FLOAT", "tensorShape": {"dim": [{"size": "64"}]}}}, "dtype": {"type": "DT_FLOAT"}}}, {"name": "model_40/tf.strided_slice_16/ones_like/tensor", "op": "Const", "attr": {"value": {"tensor": {"dtype": "DT_INT64", "tensorShape": {"dim": [{"size": "4"}]}}}, "dtype": {"type": "DT_INT64"}}}, {"name": "model_40/tf.strided_slice_16/StridedSlice/end", "op": "Const", "attr": {"value": {"tensor": {"dtype": "DT_INT64", "tensorShape": {"dim": [{"size": "4"}]}}}, "dtype": {"type": "DT_INT64"}}}, {"name": "model_40/tf.strided_slice_16/ones_like", "op": "Const", "attr": {"value": {"tensor": {"dtype": "DT_INT64", "tensorShape": {"dim": [{"size": "4"}]}}}, "dtype": {"type": "DT_INT64"}}}, {"name": "model_40/tf.nn.convolution_162/convolution/filter", "op": "Const", "attr": {"value": {"tensor": {"dtype": "DT_FLOAT", "tensorShape": {"dim": [{"size": "3"}, {"size": "3"}, {"size": "32"}, {"size": "16"}]}}}, "dtype": {"type": "DT_FLOAT"}}}, {"name": "model_40/tf.math.add_59/Add/y", "op": "Const", "attr": {"value": {"tensor": {"dtype": "DT_FLOAT", "tensorShape": {"dim": [{"size": "16"}]}}}, "dtype": {"type": "DT_FLOAT"}}}, {"name": "model_40/tf.nn.convolution_163/convolution/filter", "op": "Const", "attr": {"value": {"tensor": {"dtype": "DT_FLOAT", "tensorShape": {"dim": [{"size": "3"}, {"size": "3"}, {"size": "16"}, {"size": "32"}]}}}, "dtype": {"type": "DT_FLOAT"}}}, {"name": "model_40/tf.math.add_60/Add/y", "op": "Const", "attr": {"value": {"tensor": {"dtype": "DT_FLOAT", "tensorShape": {"dim": [{"size": "32"}]}}}, "dtype": {"type": "DT_FLOAT"}}}, {"name": "model_40/tf.concat_18/concat/axis", "op": "Const", "attr": {"value": {"tensor": {"dtype": "DT_INT32", "tensorShape": {}}}, "dtype": {"type": "DT_INT32"}}}, {"name": "model_40/tf.nn.convolution_164/convolution/filter", "op": "Const", "attr": {"value": {"tensor": {"dtype": "DT_FLOAT", "tensorShape": {"dim": [{"size": "1"}, {"size": "1"}, {"size": "96"}, {"size": "64"}]}}}, "dtype": {"type": "DT_FLOAT"}}}, {"name": "model_40/tf.math.add_63/Add/y", "op": "Const", "attr": {"value": {"tensor": {"dtype": "DT_FLOAT", "tensorShape": {"dim": [{"size": "64"}]}}}, "dtype": {"type": "DT_FLOAT"}}}, {"name": "model_40/tf.compat.v1.pad_5/Pad/paddings", "op": "Const", "attr": {"value": {"tensor": {"dtype": "DT_INT32", "tensorShape": {"dim": [{"size": "4"}, {"size": "2"}]}}}, "dtype": {"type": "DT_INT32"}}}, {"name": "model_40/tf.nn.convolution_165/convolution/filter", "op": "Const", "attr": {"value": {"tensor": {"dtype": "DT_FLOAT", "tensorShape": {"dim": [{"size": "3"}, {"size": "3"}, {"size": "64"}, {"size": "64"}]}}}, "dtype": {"type": "DT_FLOAT"}}}, {"name": "model_40/tf.math.add_64/Add/y", "op": "Const", "attr": {"value": {"tensor": {"dtype": "DT_FLOAT", "tensorShape": {"dim": [{"size": "64"}]}}}, "dtype": {"type": "DT_FLOAT"}}}, {"name": "model_40/tf.strided_slice_13/ones_like/tensor", "op": "Const", "attr": {"value": {"tensor": {"dtype": "DT_INT64", "tensorShape": {"dim": [{"size": "4"}]}}}, "dtype": {"type": "DT_INT64"}}}, {"name": "model_40/tf.strided_slice_13/StridedSlice/end", "op": "Const", "attr": {"value": {"tensor": {"dtype": "DT_INT64", "tensorShape": {"dim": [{"size": "4"}]}}}, "dtype": {"type": "DT_INT64"}}}, {"name": "model_40/tf.strided_slice_13/ones_like", "op": "Const", "attr": {"value": {"tensor": {"dtype": "DT_INT64", "tensorShape": {"dim": [{"size": "4"}]}}}, "dtype": {"type": "DT_INT64"}}}, {"name": "model_40/tf.image.resize/resize/size", "op": "Const", "attr": {"value": {"tensor": {"dtype": "DT_INT32", "tensorShape": {"dim": [{"size": "2"}]}}}, "dtype": {"type": "DT_INT32"}}}, {"name": "model_40/tf.concat_15/concat/axis", "op": "Const", "attr": {"value": {"tensor": {"dtype": "DT_INT32", "tensorShape": {}}}, "dtype": {"type": "DT_INT32"}}}, {"name": "model_40/tf.nn.convolution_157/convolution/filter", "op": "Const", "attr": {"value": {"tensor": {"dtype": "DT_FLOAT", "tensorShape": {"dim": [{"size": "1"}, {"size": "1"}, {"size": "384"}, {"size": "128"}]}}}, "dtype": {"type": "DT_FLOAT"}}}, {"name": "model_40/tf.math.add_52/Add/y", "op": "Const", "attr": {"value": {"tensor": {"dtype": "DT_FLOAT", "tensorShape": {"dim": [{"size": "128"}]}}}, "dtype": {"type": "DT_FLOAT"}}}, {"name": "model_40/tf.strided_slice_14/ones_like/tensor", "op": "Const", "attr": {"value": {"tensor": {"dtype": "DT_INT64", "tensorShape": {"dim": [{"size": "4"}]}}}, "dtype": {"type": "DT_INT64"}}}, {"name": "model_40/tf.strided_slice_14/StridedSlice/end", "op": "Const", "attr": {"value": {"tensor": {"dtype": "DT_INT64", "tensorShape": {"dim": [{"size": "4"}]}}}, "dtype": {"type": "DT_INT64"}}}, {"name": "model_40/tf.strided_slice_14/ones_like", "op": "Const", "attr": {"value": {"tensor": {"dtype": "DT_INT64", "tensorShape": {"dim": [{"size": "4"}]}}}, "dtype": {"type": "DT_INT64"}}}, {"name": "model_40/tf.nn.convolution_158/convolution/filter", "op": "Const", "attr": {"value": {"tensor": {"dtype": "DT_FLOAT", "tensorShape": {"dim": [{"size": "3"}, {"size": "3"}, {"size": "64"}, {"size": "32"}]}}}, "dtype": {"type": "DT_FLOAT"}}}, {"name": "model_40/tf.math.add_53/Add/y", "op": "Const", "attr": {"value": {"tensor": {"dtype": "DT_FLOAT", "tensorShape": {"dim": [{"size": "32"}]}}}, "dtype": {"type": "DT_FLOAT"}}}, {"name": "model_40/tf.nn.convolution_159/convolution/filter", "op": "Const", "attr": {"value": {"tensor": {"dtype": "DT_FLOAT", "tensorShape": {"dim": [{"size": "3"}, {"size": "3"}, {"size": "32"}, {"size": "64"}]}}}, "dtype": {"type": "DT_FLOAT"}}}, {"name": "model_40/tf.math.add_54/Add/y", "op": "Const", "attr": {"value": {"tensor": {"dtype": "DT_FLOAT", "tensorShape": {"dim": [{"size": "64"}]}}}, "dtype": {"type": "DT_FLOAT"}}}, {"name": "model_40/tf.concat_16/concat/axis", "op": "Const", "attr": {"value": {"tensor": {"dtype": "DT_INT32", "tensorShape": {}}}, "dtype": {"type": "DT_INT32"}}}, {"name": "model_40/tf.nn.convolution_160/convolution/filter", "op": "Const", "attr": {"value": {"tensor": {"dtype": "DT_FLOAT", "tensorShape": {"dim": [{"size": "1"}, {"size": "1"}, {"size": "192"}, {"size": "128"}]}}}, "dtype": {"type": "DT_FLOAT"}}}, {"name": "model_40/tf.math.add_57/Add/y", "op": "Const", "attr": {"value": {"tensor": {"dtype": "DT_FLOAT", "tensorShape": {"dim": [{"size": "128"}]}}}, "dtype": {"type": "DT_FLOAT"}}}, {"name": "model_40/tf.concat_19/concat/axis", "op": "Const", "attr": {"value": {"tensor": {"dtype": "DT_INT32", "tensorShape": {}}}, "dtype": {"type": "DT_INT32"}}}, {"name": "model_40/tf.nn.convolution_171/convolution/filter", "op": "Const", "attr": {"value": {"tensor": {"dtype": "DT_FLOAT", "tensorShape": {"dim": [{"size": "1"}, {"size": "1"}, {"size": "192"}, {"size": "128"}]}}}, "dtype": {"type": "DT_FLOAT"}}}, {"name": "model_40/tf.math.add_71/Add/y", "op": "Const", "attr": {"value": {"tensor": {"dtype": "DT_FLOAT", "tensorShape": {"dim": [{"size": "128"}]}}}, "dtype": {"type": "DT_FLOAT"}}}, {"name": "model_40/tf.strided_slice_18/ones_like/tensor", "op": "Const", "attr": {"value": {"tensor": {"dtype": "DT_INT64", "tensorShape": {"dim": [{"size": "4"}]}}}, "dtype": {"type": "DT_INT64"}}}, {"name": "model_40/tf.strided_slice_18/StridedSlice/end", "op": "Const", "attr": {"value": {"tensor": {"dtype": "DT_INT64", "tensorShape": {"dim": [{"size": "4"}]}}}, "dtype": {"type": "DT_INT64"}}}, {"name": "model_40/tf.strided_slice_18/ones_like", "op": "Const", "attr": {"value": {"tensor": {"dtype": "DT_INT64", "tensorShape": {"dim": [{"size": "4"}]}}}, "dtype": {"type": "DT_INT64"}}}, {"name": "model_40/tf.compat.v1.nn.depthwise_conv2d_12/depthwise/filter_in", "op": "Const", "attr": {"value": {"tensor": {"dtype": "DT_FLOAT", "tensorShape": {"dim": [{"size": "3"}, {"size": "3"}, {"size": "64"}, {"size": "1"}]}}}, "dtype": {"type": "DT_FLOAT"}}}, {"name": "model_40/tf.math.add_83/Add/y", "op": "Const", "attr": {"value": {"tensor": {"dtype": "DT_FLOAT", "tensorShape": {"dim": [{"size": "64"}]}}}, "dtype": {"type": "DT_FLOAT"}}}, {"name": "model_40/tf.concat_23/concat/axis", "op": "Const", "attr": {"value": {"tensor": {"dtype": "DT_INT32", "tensorShape": {}}}, "dtype": {"type": "DT_INT32"}}}, {"name": "model_40/tf.nn.convolution_178/convolution/filter", "op": "Const", "attr": {"value": {"tensor": {"dtype": "DT_FLOAT", "tensorShape": {"dim": [{"size": "1"}, {"size": "1"}, {"size": "192"}, {"size": "128"}]}}}, "dtype": {"type": "DT_FLOAT"}}}, {"name": "model_40/tf.math.add_86/Add/y", "op": "Const", "attr": {"value": {"tensor": {"dtype": "DT_FLOAT", "tensorShape": {"dim": [{"size": "128"}]}}}, "dtype": {"type": "DT_FLOAT"}}}, {"name": "model_40/tf.compat.v1.pad_6/Pad/paddings", "op": "Const", "attr": {"value": {"tensor": {"dtype": "DT_INT32", "tensorShape": {"dim": [{"size": "4"}, {"size": "2"}]}}}, "dtype": {"type": "DT_INT32"}}}, {"name": "model_40/tf.nn.convolution_179/convolution/filter", "op": "Const", "attr": {"value": {"tensor": {"dtype": "DT_FLOAT", "tensorShape": {"dim": [{"size": "3"}, {"size": "3"}, {"size": "128"}, {"size": "128"}]}}}, "dtype": {"type": "DT_FLOAT"}}}, {"name": "model_40/tf.math.add_87/Add/y", "op": "Const", "attr": {"value": {"tensor": {"dtype": "DT_FLOAT", "tensorShape": {"dim": [{"size": "128"}]}}}, "dtype": {"type": "DT_FLOAT"}}}, {"name": "model_40/tf.strided_slice_8/StridedSlice/begin", "op": "Const", "attr": {"value": {"tensor": {"dtype": "DT_INT32", "tensorShape": {"dim": [{"size": "4"}]}}}, "dtype": {"type": "DT_INT32"}}}, {"name": "model_40/tf.strided_slice_8/StridedSlice/end", "op": "Const", "attr": {"value": {"tensor": {"dtype": "DT_INT32", "tensorShape": {"dim": [{"size": "4"}]}}}, "dtype": {"type": "DT_INT32"}}}, {"name": "model_40/tf.strided_slice_8/ones_like", "op": "Const", "attr": {"value": {"tensor": {"dtype": "DT_INT32", "tensorShape": {"dim": [{"size": "4"}]}}}, "dtype": {"type": "DT_INT32"}}}, {"name": "model_40/tf.math.add_48/Add/y", "op": "Const", "attr": {"value": {"tensor": {"dtype": "DT_FLOAT", "tensorShape": {"dim": [{"size": "128"}]}}}, "dtype": {"type": "DT_FLOAT"}}}, {"name": "model_40/tf.math.add_41/Add/y", "op": "Const", "attr": {"value": {"tensor": {"dtype": "DT_FLOAT", "tensorShape": {"dim": [{"size": "128"}]}}}, "dtype": {"type": "DT_FLOAT"}}}, {"name": "model_40/tf.strided_slice_10/StridedSlice/begin", "op": "Const", "attr": {"value": {"tensor": {"dtype": "DT_INT32", "tensorShape": {"dim": [{"size": "4"}]}}}, "dtype": {"type": "DT_INT32"}}}, {"name": "model_40/tf.strided_slice_10/StridedSlice/end", "op": "Const", "attr": {"value": {"tensor": {"dtype": "DT_INT32", "tensorShape": {"dim": [{"size": "4"}]}}}, "dtype": {"type": "DT_INT32"}}}, {"name": "model_40/tf.strided_slice_10/ones_like", "op": "Const", "attr": {"value": {"tensor": {"dtype": "DT_INT32", "tensorShape": {"dim": [{"size": "4"}]}}}, "dtype": {"type": "DT_INT32"}}}, {"name": "model_40/tf.strided_slice_11/StridedSlice/begin", "op": "Const", "attr": {"value": {"tensor": {"dtype": "DT_INT32", "tensorShape": {"dim": [{"size": "4"}]}}}, "dtype": {"type": "DT_INT32"}}}, {"name": "model_40/tf.strided_slice_11/StridedSlice/end", "op": "Const", "attr": {"value": {"tensor": {"dtype": "DT_INT32", "tensorShape": {"dim": [{"size": "4"}]}}}, "dtype": {"type": "DT_INT32"}}}, {"name": "model_40/tf.strided_slice_11/ones_like", "op": "Const", "attr": {"value": {"tensor": {"dtype": "DT_INT32", "tensorShape": {"dim": [{"size": "4"}]}}}, "dtype": {"type": "DT_INT32"}}}, {"name": "model_40/tf.math.multiply_106/Mul/y", "op": "Const", "attr": {"value": {"tensor": {"dtype": "DT_FLOAT", "tensorShape": {}}}, "dtype": {"type": "DT_FLOAT"}}}, {"name": "model_40/tf.reshape_8/Reshape/shape", "op": "Const", "attr": {"value": {"tensor": {"dtype": "DT_INT32", "tensorShape": {"dim": [{"size": "4"}]}}}, "dtype": {"type": "DT_INT32"}}}, {"name": "model_40/tf.compat.v1.transpose_45/transpose/perm", "op": "Const", "attr": {"value": {"tensor": {"dtype": "DT_INT32", "tensorShape": {"dim": [{"size": "4"}]}}}, "dtype": {"type": "DT_INT32"}}}, {"name": "model_40/tf.nn.convolution_25/convolution/filter", "op": "Const", "attr": {"value": {"tensor": {"dtype": "DT_FLOAT", "tensorShape": {"dim": [{"size": "3"}, {"size": "3"}, {"size": "1"}, {"size": "1"}]}}}, "dtype": {"type": "DT_FLOAT"}}}, {"name": "model_40/tf.nn.convolution_26/convolution/filter", "op": "Const", "attr": {"value": {"tensor": {"dtype": "DT_FLOAT", "tensorShape": {"dim": [{"size": "3"}, {"size": "3"}, {"size": "1"}, {"size": "1"}]}}}, "dtype": {"type": "DT_FLOAT"}}}, {"name": "model_40/tf.nn.convolution_27/convolution/filter", "op": "Const", "attr": {"value": {"tensor": {"dtype": "DT_FLOAT", "tensorShape": {"dim": [{"size": "3"}, {"size": "3"}, {"size": "1"}, {"size": "1"}]}}}, "dtype": {"type": "DT_FLOAT"}}}, {"name": "model_40/tf.nn.convolution_28/convolution/filter", "op": "Const", "attr": {"value": {"tensor": {"dtype": "DT_FLOAT", "tensorShape": {"dim": [{"size": "3"}, {"size": "3"}, {"size": "1"}, {"size": "1"}]}}}, "dtype": {"type": "DT_FLOAT"}}}, {"name": "model_40/tf.nn.convolution_29/convolution/filter", "op": "Const", "attr": {"value": {"tensor": {"dtype": "DT_FLOAT", "tensorShape": {"dim": [{"size": "3"}, {"size": "3"}, {"size": "1"}, {"size": "1"}]}}}, "dtype": {"type": "DT_FLOAT"}}}, {"name": "model_40/tf.nn.convolution_30/convolution/filter", "op": "Const", "attr": {"value": {"tensor": {"dtype": "DT_FLOAT", "tensorShape": {"dim": [{"size": "3"}, {"size": "3"}, {"size": "1"}, {"size": "1"}]}}}, "dtype": {"type": "DT_FLOAT"}}}, {"name": "model_40/tf.nn.convolution_31/convolution/filter", "op": "Const", "attr": {"value": {"tensor": {"dtype": "DT_FLOAT", "tensorShape": {"dim": [{"size": "3"}, {"size": "3"}, {"size": "1"}, {"size": "1"}]}}}, "dtype": {"type": "DT_FLOAT"}}}, {"name": "model_40/tf.nn.convolution_32/convolution/filter", "op": "Const", "attr": {"value": {"tensor": {"dtype": "DT_FLOAT", "tensorShape": {"dim": [{"size": "3"}, {"size": "3"}, {"size": "1"}, {"size": "1"}]}}}, "dtype": {"type": "DT_FLOAT"}}}, {"name": "model_40/tf.nn.convolution_33/convolution/filter", "op": "Const", "attr": {"value": {"tensor": {"dtype": "DT_FLOAT", "tensorShape": {"dim": [{"size": "3"}, {"size": "3"}, {"size": "1"}, {"size": "1"}]}}}, "dtype": {"type": "DT_FLOAT"}}}, {"name": "model_40/tf.nn.convolution_34/convolution/filter", "op": "Const", "attr": {"value": {"tensor": {"dtype": "DT_FLOAT", "tensorShape": {"dim": [{"size": "3"}, {"size": "3"}, {"size": "1"}, {"size": "1"}]}}}, "dtype": {"type": "DT_FLOAT"}}}, {"name": "model_40/tf.nn.convolution_35/convolution/filter", "op": "Const", "attr": {"value": {"tensor": {"dtype": "DT_FLOAT", "tensorShape": {"dim": [{"size": "3"}, {"size": "3"}, {"size": "1"}, {"size": "1"}]}}}, "dtype": {"type": "DT_FLOAT"}}}, {"name": "model_40/tf.nn.convolution_36/convolution/filter", "op": "Const", "attr": {"value": {"tensor": {"dtype": "DT_FLOAT", "tensorShape": {"dim": [{"size": "3"}, {"size": "3"}, {"size": "1"}, {"size": "1"}]}}}, "dtype": {"type": "DT_FLOAT"}}}, {"name": "model_40/tf.nn.convolution_37/convolution/filter", "op": "Const", "attr": {"value": {"tensor": {"dtype": "DT_FLOAT", "tensorShape": {"dim": [{"size": "3"}, {"size": "3"}, {"size": "1"}, {"size": "1"}]}}}, "dtype": {"type": "DT_FLOAT"}}}, {"name": "model_40/tf.nn.convolution_38/convolution/filter", "op": "Const", "attr": {"value": {"tensor": {"dtype": "DT_FLOAT", "tensorShape": {"dim": [{"size": "3"}, {"size": "3"}, {"size": "1"}, {"size": "1"}]}}}, "dtype": {"type": "DT_FLOAT"}}}, {"name": "model_40/tf.nn.convolution_39/convolution/filter", "op": "Const", "attr": {"value": {"tensor": {"dtype": "DT_FLOAT", "tensorShape": {"dim": [{"size": "3"}, {"size": "3"}, {"size": "1"}, {"size": "1"}]}}}, "dtype": {"type": "DT_FLOAT"}}}, {"name": "model_40/tf.nn.convolution_40/convolution/filter", "op": "Const", "attr": {"value": {"tensor": {"dtype": "DT_FLOAT", "tensorShape": {"dim": [{"size": "3"}, {"size": "3"}, {"size": "1"}, {"size": "1"}]}}}, "dtype": {"type": "DT_FLOAT"}}}, {"name": "model_40/tf.nn.convolution_41/convolution/filter", "op": "Const", "attr": {"value": {"tensor": {"dtype": "DT_FLOAT", "tensorShape": {"dim": [{"size": "3"}, {"size": "3"}, {"size": "1"}, {"size": "1"}]}}}, "dtype": {"type": "DT_FLOAT"}}}, {"name": "model_40/tf.nn.convolution_42/convolution/filter", "op": "Const", "attr": {"value": {"tensor": {"dtype": "DT_FLOAT", "tensorShape": {"dim": [{"size": "3"}, {"size": "3"}, {"size": "1"}, {"size": "1"}]}}}, "dtype": {"type": "DT_FLOAT"}}}, {"name": "model_40/tf.nn.convolution_43/convolution/filter", "op": "Const", "attr": {"value": {"tensor": {"dtype": "DT_FLOAT", "tensorShape": {"dim": [{"size": "3"}, {"size": "3"}, {"size": "1"}, {"size": "1"}]}}}, "dtype": {"type": "DT_FLOAT"}}}, {"name": "model_40/tf.nn.convolution_44/convolution/filter", "op": "Const", "attr": {"value": {"tensor": {"dtype": "DT_FLOAT", "tensorShape": {"dim": [{"size": "3"}, {"size": "3"}, {"size": "1"}, {"size": "1"}]}}}, "dtype": {"type": "DT_FLOAT"}}}, {"name": "model_40/tf.nn.convolution_45/convolution/filter", "op": "Const", "attr": {"value": {"tensor": {"dtype": "DT_FLOAT", "tensorShape": {"dim": [{"size": "3"}, {"size": "3"}, {"size": "1"}, {"size": "1"}]}}}, "dtype": {"type": "DT_FLOAT"}}}, {"name": "model_40/tf.nn.convolution_46/convolution/filter", "op": "Const", "attr": {"value": {"tensor": {"dtype": "DT_FLOAT", "tensorShape": {"dim": [{"size": "3"}, {"size": "3"}, {"size": "1"}, {"size": "1"}]}}}, "dtype": {"type": "DT_FLOAT"}}}, {"name": "model_40/tf.nn.convolution_47/convolution/filter", "op": "Const", "attr": {"value": {"tensor": {"dtype": "DT_FLOAT", "tensorShape": {"dim": [{"size": "3"}, {"size": "3"}, {"size": "1"}, {"size": "1"}]}}}, "dtype": {"type": "DT_FLOAT"}}}, {"name": "model_40/tf.nn.convolution_48/convolution/filter", "op": "Const", "attr": {"value": {"tensor": {"dtype": "DT_FLOAT", "tensorShape": {"dim": [{"size": "3"}, {"size": "3"}, {"size": "1"}, {"size": "1"}]}}}, "dtype": {"type": "DT_FLOAT"}}}, {"name": "model_40/tf.nn.convolution_49/convolution/filter", "op": "Const", "attr": {"value": {"tensor": {"dtype": "DT_FLOAT", "tensorShape": {"dim": [{"size": "3"}, {"size": "3"}, {"size": "1"}, {"size": "1"}]}}}, "dtype": {"type": "DT_FLOAT"}}}, {"name": "model_40/tf.nn.convolution_50/convolution/filter", "op": "Const", "attr": {"value": {"tensor": {"dtype": "DT_FLOAT", "tensorShape": {"dim": [{"size": "3"}, {"size": "3"}, {"size": "1"}, {"size": "1"}]}}}, "dtype": {"type": "DT_FLOAT"}}}, {"name": "model_40/tf.nn.convolution_51/convolution/filter", "op": "Const", "attr": {"value": {"tensor": {"dtype": "DT_FLOAT", "tensorShape": {"dim": [{"size": "3"}, {"size": "3"}, {"size": "1"}, {"size": "1"}]}}}, "dtype": {"type": "DT_FLOAT"}}}, {"name": "model_40/tf.nn.convolution_52/convolution/filter", "op": "Const", "attr": {"value": {"tensor": {"dtype": "DT_FLOAT", "tensorShape": {"dim": [{"size": "3"}, {"size": "3"}, {"size": "1"}, {"size": "1"}]}}}, "dtype": {"type": "DT_FLOAT"}}}, {"name": "model_40/tf.nn.convolution_53/convolution/filter", "op": "Const", "attr": {"value": {"tensor": {"dtype": "DT_FLOAT", "tensorShape": {"dim": [{"size": "3"}, {"size": "3"}, {"size": "1"}, {"size": "1"}]}}}, "dtype": {"type": "DT_FLOAT"}}}, {"name": "model_40/tf.nn.convolution_54/convolution/filter", "op": "Const", "attr": {"value": {"tensor": {"dtype": "DT_FLOAT", "tensorShape": {"dim": [{"size": "3"}, {"size": "3"}, {"size": "1"}, {"size": "1"}]}}}, "dtype": {"type": "DT_FLOAT"}}}, {"name": "model_40/tf.nn.convolution_55/convolution/filter", "op": "Const", "attr": {"value": {"tensor": {"dtype": "DT_FLOAT", "tensorShape": {"dim": [{"size": "3"}, {"size": "3"}, {"size": "1"}, {"size": "1"}]}}}, "dtype": {"type": "DT_FLOAT"}}}, {"name": "model_40/tf.nn.convolution_56/convolution/filter", "op": "Const", "attr": {"value": {"tensor": {"dtype": "DT_FLOAT", "tensorShape": {"dim": [{"size": "3"}, {"size": "3"}, {"size": "1"}, {"size": "1"}]}}}, "dtype": {"type": "DT_FLOAT"}}}, {"name": "model_40/tf.nn.convolution_57/convolution/filter", "op": "Const", "attr": {"value": {"tensor": {"dtype": "DT_FLOAT", "tensorShape": {"dim": [{"size": "3"}, {"size": "3"}, {"size": "1"}, {"size": "1"}]}}}, "dtype": {"type": "DT_FLOAT"}}}, {"name": "model_40/tf.nn.convolution_58/convolution/filter", "op": "Const", "attr": {"value": {"tensor": {"dtype": "DT_FLOAT", "tensorShape": {"dim": [{"size": "3"}, {"size": "3"}, {"size": "1"}, {"size": "1"}]}}}, "dtype": {"type": "DT_FLOAT"}}}, {"name": "model_40/tf.nn.convolution_59/convolution/filter", "op": "Const", "attr": {"value": {"tensor": {"dtype": "DT_FLOAT", "tensorShape": {"dim": [{"size": "3"}, {"size": "3"}, {"size": "1"}, {"size": "1"}]}}}, "dtype": {"type": "DT_FLOAT"}}}, {"name": "model_40/tf.nn.convolution_60/convolution/filter", "op": "Const", "attr": {"value": {"tensor": {"dtype": "DT_FLOAT", "tensorShape": {"dim": [{"size": "3"}, {"size": "3"}, {"size": "1"}, {"size": "1"}]}}}, "dtype": {"type": "DT_FLOAT"}}}, {"name": "model_40/tf.nn.convolution_61/convolution/filter", "op": "Const", "attr": {"value": {"tensor": {"dtype": "DT_FLOAT", "tensorShape": {"dim": [{"size": "3"}, {"size": "3"}, {"size": "1"}, {"size": "1"}]}}}, "dtype": {"type": "DT_FLOAT"}}}, {"name": "model_40/tf.nn.convolution_62/convolution/filter", "op": "Const", "attr": {"value": {"tensor": {"dtype": "DT_FLOAT", "tensorShape": {"dim": [{"size": "3"}, {"size": "3"}, {"size": "1"}, {"size": "1"}]}}}, "dtype": {"type": "DT_FLOAT"}}}, {"name": "model_40/tf.nn.convolution_63/convolution/filter", "op": "Const", "attr": {"value": {"tensor": {"dtype": "DT_FLOAT", "tensorShape": {"dim": [{"size": "3"}, {"size": "3"}, {"size": "1"}, {"size": "1"}]}}}, "dtype": {"type": "DT_FLOAT"}}}, {"name": "model_40/tf.nn.convolution_64/convolution/filter", "op": "Const", "attr": {"value": {"tensor": {"dtype": "DT_FLOAT", "tensorShape": {"dim": [{"size": "3"}, {"size": "3"}, {"size": "1"}, {"size": "1"}]}}}, "dtype": {"type": "DT_FLOAT"}}}, {"name": "model_40/tf.nn.convolution_65/convolution/filter", "op": "Const", "attr": {"value": {"tensor": {"dtype": "DT_FLOAT", "tensorShape": {"dim": [{"size": "3"}, {"size": "3"}, {"size": "1"}, {"size": "1"}]}}}, "dtype": {"type": "DT_FLOAT"}}}, {"name": "model_40/tf.nn.convolution_66/convolution/filter", "op": "Const", "attr": {"value": {"tensor": {"dtype": "DT_FLOAT", "tensorShape": {"dim": [{"size": "3"}, {"size": "3"}, {"size": "1"}, {"size": "1"}]}}}, "dtype": {"type": "DT_FLOAT"}}}, {"name": "model_40/tf.nn.convolution_67/convolution/filter", "op": "Const", "attr": {"value": {"tensor": {"dtype": "DT_FLOAT", "tensorShape": {"dim": [{"size": "3"}, {"size": "3"}, {"size": "1"}, {"size": "1"}]}}}, "dtype": {"type": "DT_FLOAT"}}}, {"name": "model_40/tf.nn.convolution_68/convolution/filter", "op": "Const", "attr": {"value": {"tensor": {"dtype": "DT_FLOAT", "tensorShape": {"dim": [{"size": "3"}, {"size": "3"}, {"size": "1"}, {"size": "1"}]}}}, "dtype": {"type": "DT_FLOAT"}}}, {"name": "model_40/tf.nn.convolution_69/convolution/filter", "op": "Const", "attr": {"value": {"tensor": {"dtype": "DT_FLOAT", "tensorShape": {"dim": [{"size": "3"}, {"size": "3"}, {"size": "1"}, {"size": "1"}]}}}, "dtype": {"type": "DT_FLOAT"}}}, {"name": "model_40/tf.nn.convolution_70/convolution/filter", "op": "Const", "attr": {"value": {"tensor": {"dtype": "DT_FLOAT", "tensorShape": {"dim": [{"size": "3"}, {"size": "3"}, {"size": "1"}, {"size": "1"}]}}}, "dtype": {"type": "DT_FLOAT"}}}, {"name": "model_40/tf.nn.convolution_71/convolution/filter", "op": "Const", "attr": {"value": {"tensor": {"dtype": "DT_FLOAT", "tensorShape": {"dim": [{"size": "3"}, {"size": "3"}, {"size": "1"}, {"size": "1"}]}}}, "dtype": {"type": "DT_FLOAT"}}}, {"name": "model_40/tf.nn.convolution_72/convolution/filter", "op": "Const", "attr": {"value": {"tensor": {"dtype": "DT_FLOAT", "tensorShape": {"dim": [{"size": "3"}, {"size": "3"}, {"size": "1"}, {"size": "1"}]}}}, "dtype": {"type": "DT_FLOAT"}}}, {"name": "model_40/tf.nn.convolution_73/convolution/filter", "op": "Const", "attr": {"value": {"tensor": {"dtype": "DT_FLOAT", "tensorShape": {"dim": [{"size": "3"}, {"size": "3"}, {"size": "1"}, {"size": "1"}]}}}, "dtype": {"type": "DT_FLOAT"}}}, {"name": "model_40/tf.nn.convolution_74/convolution/filter", "op": "Const", "attr": {"value": {"tensor": {"dtype": "DT_FLOAT", "tensorShape": {"dim": [{"size": "3"}, {"size": "3"}, {"size": "1"}, {"size": "1"}]}}}, "dtype": {"type": "DT_FLOAT"}}}, {"name": "model_40/tf.nn.convolution_75/convolution/filter", "op": "Const", "attr": {"value": {"tensor": {"dtype": "DT_FLOAT", "tensorShape": {"dim": [{"size": "3"}, {"size": "3"}, {"size": "1"}, {"size": "1"}]}}}, "dtype": {"type": "DT_FLOAT"}}}, {"name": "model_40/tf.nn.convolution_76/convolution/filter", "op": "Const", "attr": {"value": {"tensor": {"dtype": "DT_FLOAT", "tensorShape": {"dim": [{"size": "3"}, {"size": "3"}, {"size": "1"}, {"size": "1"}]}}}, "dtype": {"type": "DT_FLOAT"}}}, {"name": "model_40/tf.nn.convolution_77/convolution/filter", "op": "Const", "attr": {"value": {"tensor": {"dtype": "DT_FLOAT", "tensorShape": {"dim": [{"size": "3"}, {"size": "3"}, {"size": "1"}, {"size": "1"}]}}}, "dtype": {"type": "DT_FLOAT"}}}, {"name": "model_40/tf.nn.convolution_78/convolution/filter", "op": "Const", "attr": {"value": {"tensor": {"dtype": "DT_FLOAT", "tensorShape": {"dim": [{"size": "3"}, {"size": "3"}, {"size": "1"}, {"size": "1"}]}}}, "dtype": {"type": "DT_FLOAT"}}}, {"name": "model_40/tf.nn.convolution_79/convolution/filter", "op": "Const", "attr": {"value": {"tensor": {"dtype": "DT_FLOAT", "tensorShape": {"dim": [{"size": "3"}, {"size": "3"}, {"size": "1"}, {"size": "1"}]}}}, "dtype": {"type": "DT_FLOAT"}}}, {"name": "model_40/tf.nn.convolution_80/convolution/filter", "op": "Const", "attr": {"value": {"tensor": {"dtype": "DT_FLOAT", "tensorShape": {"dim": [{"size": "3"}, {"size": "3"}, {"size": "1"}, {"size": "1"}]}}}, "dtype": {"type": "DT_FLOAT"}}}, {"name": "model_40/tf.nn.convolution_81/convolution/filter", "op": "Const", "attr": {"value": {"tensor": {"dtype": "DT_FLOAT", "tensorShape": {"dim": [{"size": "3"}, {"size": "3"}, {"size": "1"}, {"size": "1"}]}}}, "dtype": {"type": "DT_FLOAT"}}}, {"name": "model_40/tf.nn.convolution_82/convolution/filter", "op": "Const", "attr": {"value": {"tensor": {"dtype": "DT_FLOAT", "tensorShape": {"dim": [{"size": "3"}, {"size": "3"}, {"size": "1"}, {"size": "1"}]}}}, "dtype": {"type": "DT_FLOAT"}}}, {"name": "model_40/tf.nn.convolution_83/convolution/filter", "op": "Const", "attr": {"value": {"tensor": {"dtype": "DT_FLOAT", "tensorShape": {"dim": [{"size": "3"}, {"size": "3"}, {"size": "1"}, {"size": "1"}]}}}, "dtype": {"type": "DT_FLOAT"}}}, {"name": "model_40/tf.nn.convolution_84/convolution/filter", "op": "Const", "attr": {"value": {"tensor": {"dtype": "DT_FLOAT", "tensorShape": {"dim": [{"size": "3"}, {"size": "3"}, {"size": "1"}, {"size": "1"}]}}}, "dtype": {"type": "DT_FLOAT"}}}, {"name": "model_40/tf.nn.convolution_85/convolution/filter", "op": "Const", "attr": {"value": {"tensor": {"dtype": "DT_FLOAT", "tensorShape": {"dim": [{"size": "3"}, {"size": "3"}, {"size": "1"}, {"size": "1"}]}}}, "dtype": {"type": "DT_FLOAT"}}}, {"name": "model_40/tf.nn.convolution_86/convolution/filter", "op": "Const", "attr": {"value": {"tensor": {"dtype": "DT_FLOAT", "tensorShape": {"dim": [{"size": "3"}, {"size": "3"}, {"size": "1"}, {"size": "1"}]}}}, "dtype": {"type": "DT_FLOAT"}}}, {"name": "model_40/tf.nn.convolution_87/convolution/filter", "op": "Const", "attr": {"value": {"tensor": {"dtype": "DT_FLOAT", "tensorShape": {"dim": [{"size": "3"}, {"size": "3"}, {"size": "1"}, {"size": "1"}]}}}, "dtype": {"type": "DT_FLOAT"}}}, {"name": "model_40/tf.nn.convolution_88/convolution/filter", "op": "Const", "attr": {"value": {"tensor": {"dtype": "DT_FLOAT", "tensorShape": {"dim": [{"size": "3"}, {"size": "3"}, {"size": "1"}, {"size": "1"}]}}}, "dtype": {"type": "DT_FLOAT"}}}, {"name": "model_40/tf.nn.convolution_89/convolution/filter", "op": "Const", "attr": {"value": {"tensor": {"dtype": "DT_FLOAT", "tensorShape": {"dim": [{"size": "3"}, {"size": "3"}, {"size": "1"}, {"size": "1"}]}}}, "dtype": {"type": "DT_FLOAT"}}}, {"name": "model_40/tf.nn.convolution_90/convolution/filter", "op": "Const", "attr": {"value": {"tensor": {"dtype": "DT_FLOAT", "tensorShape": {"dim": [{"size": "3"}, {"size": "3"}, {"size": "1"}, {"size": "1"}]}}}, "dtype": {"type": "DT_FLOAT"}}}, {"name": "model_40/tf.nn.convolution_91/convolution/filter", "op": "Const", "attr": {"value": {"tensor": {"dtype": "DT_FLOAT", "tensorShape": {"dim": [{"size": "3"}, {"size": "3"}, {"size": "1"}, {"size": "1"}]}}}, "dtype": {"type": "DT_FLOAT"}}}, {"name": "model_40/tf.nn.convolution_92/convolution/filter", "op": "Const", "attr": {"value": {"tensor": {"dtype": "DT_FLOAT", "tensorShape": {"dim": [{"size": "3"}, {"size": "3"}, {"size": "1"}, {"size": "1"}]}}}, "dtype": {"type": "DT_FLOAT"}}}, {"name": "model_40/tf.nn.convolution_93/convolution/filter", "op": "Const", "attr": {"value": {"tensor": {"dtype": "DT_FLOAT", "tensorShape": {"dim": [{"size": "3"}, {"size": "3"}, {"size": "1"}, {"size": "1"}]}}}, "dtype": {"type": "DT_FLOAT"}}}, {"name": "model_40/tf.nn.convolution_94/convolution/filter", "op": "Const", "attr": {"value": {"tensor": {"dtype": "DT_FLOAT", "tensorShape": {"dim": [{"size": "3"}, {"size": "3"}, {"size": "1"}, {"size": "1"}]}}}, "dtype": {"type": "DT_FLOAT"}}}, {"name": "model_40/tf.nn.convolution_95/convolution/filter", "op": "Const", "attr": {"value": {"tensor": {"dtype": "DT_FLOAT", "tensorShape": {"dim": [{"size": "3"}, {"size": "3"}, {"size": "1"}, {"size": "1"}]}}}, "dtype": {"type": "DT_FLOAT"}}}, {"name": "model_40/tf.nn.convolution_96/convolution/filter", "op": "Const", "attr": {"value": {"tensor": {"dtype": "DT_FLOAT", "tensorShape": {"dim": [{"size": "3"}, {"size": "3"}, {"size": "1"}, {"size": "1"}]}}}, "dtype": {"type": "DT_FLOAT"}}}, {"name": "model_40/tf.nn.convolution_97/convolution/filter", "op": "Const", "attr": {"value": {"tensor": {"dtype": "DT_FLOAT", "tensorShape": {"dim": [{"size": "3"}, {"size": "3"}, {"size": "1"}, {"size": "1"}]}}}, "dtype": {"type": "DT_FLOAT"}}}, {"name": "model_40/tf.nn.convolution_98/convolution/filter", "op": "Const", "attr": {"value": {"tensor": {"dtype": "DT_FLOAT", "tensorShape": {"dim": [{"size": "3"}, {"size": "3"}, {"size": "1"}, {"size": "1"}]}}}, "dtype": {"type": "DT_FLOAT"}}}, {"name": "model_40/tf.nn.convolution_99/convolution/filter", "op": "Const", "attr": {"value": {"tensor": {"dtype": "DT_FLOAT", "tensorShape": {"dim": [{"size": "3"}, {"size": "3"}, {"size": "1"}, {"size": "1"}]}}}, "dtype": {"type": "DT_FLOAT"}}}, {"name": "model_40/tf.nn.convolution_100/convolution/filter", "op": "Const", "attr": {"value": {"tensor": {"dtype": "DT_FLOAT", "tensorShape": {"dim": [{"size": "3"}, {"size": "3"}, {"size": "1"}, {"size": "1"}]}}}, "dtype": {"type": "DT_FLOAT"}}}, {"name": "model_40/tf.nn.convolution_101/convolution/filter", "op": "Const", "attr": {"value": {"tensor": {"dtype": "DT_FLOAT", "tensorShape": {"dim": [{"size": "3"}, {"size": "3"}, {"size": "1"}, {"size": "1"}]}}}, "dtype": {"type": "DT_FLOAT"}}}, {"name": "model_40/tf.nn.convolution_102/convolution/filter", "op": "Const", "attr": {"value": {"tensor": {"dtype": "DT_FLOAT", "tensorShape": {"dim": [{"size": "3"}, {"size": "3"}, {"size": "1"}, {"size": "1"}]}}}, "dtype": {"type": "DT_FLOAT"}}}, {"name": "model_40/tf.nn.convolution_103/convolution/filter", "op": "Const", "attr": {"value": {"tensor": {"dtype": "DT_FLOAT", "tensorShape": {"dim": [{"size": "3"}, {"size": "3"}, {"size": "1"}, {"size": "1"}]}}}, "dtype": {"type": "DT_FLOAT"}}}, {"name": "model_40/tf.nn.convolution_104/convolution/filter", "op": "Const", "attr": {"value": {"tensor": {"dtype": "DT_FLOAT", "tensorShape": {"dim": [{"size": "3"}, {"size": "3"}, {"size": "1"}, {"size": "1"}]}}}, "dtype": {"type": "DT_FLOAT"}}}, {"name": "model_40/tf.nn.convolution_105/convolution/filter", "op": "Const", "attr": {"value": {"tensor": {"dtype": "DT_FLOAT", "tensorShape": {"dim": [{"size": "3"}, {"size": "3"}, {"size": "1"}, {"size": "1"}]}}}, "dtype": {"type": "DT_FLOAT"}}}, {"name": "model_40/tf.nn.convolution_106/convolution/filter", "op": "Const", "attr": {"value": {"tensor": {"dtype": "DT_FLOAT", "tensorShape": {"dim": [{"size": "3"}, {"size": "3"}, {"size": "1"}, {"size": "1"}]}}}, "dtype": {"type": "DT_FLOAT"}}}, {"name": "model_40/tf.nn.convolution_107/convolution/filter", "op": "Const", "attr": {"value": {"tensor": {"dtype": "DT_FLOAT", "tensorShape": {"dim": [{"size": "3"}, {"size": "3"}, {"size": "1"}, {"size": "1"}]}}}, "dtype": {"type": "DT_FLOAT"}}}, {"name": "model_40/tf.nn.convolution_108/convolution/filter", "op": "Const", "attr": {"value": {"tensor": {"dtype": "DT_FLOAT", "tensorShape": {"dim": [{"size": "3"}, {"size": "3"}, {"size": "1"}, {"size": "1"}]}}}, "dtype": {"type": "DT_FLOAT"}}}, {"name": "model_40/tf.nn.convolution_109/convolution/filter", "op": "Const", "attr": {"value": {"tensor": {"dtype": "DT_FLOAT", "tensorShape": {"dim": [{"size": "3"}, {"size": "3"}, {"size": "1"}, {"size": "1"}]}}}, "dtype": {"type": "DT_FLOAT"}}}, {"name": "model_40/tf.nn.convolution_110/convolution/filter", "op": "Const", "attr": {"value": {"tensor": {"dtype": "DT_FLOAT", "tensorShape": {"dim": [{"size": "3"}, {"size": "3"}, {"size": "1"}, {"size": "1"}]}}}, "dtype": {"type": "DT_FLOAT"}}}, {"name": "model_40/tf.nn.convolution_111/convolution/filter", "op": "Const", "attr": {"value": {"tensor": {"dtype": "DT_FLOAT", "tensorShape": {"dim": [{"size": "3"}, {"size": "3"}, {"size": "1"}, {"size": "1"}]}}}, "dtype": {"type": "DT_FLOAT"}}}, {"name": "model_40/tf.nn.convolution_112/convolution/filter", "op": "Const", "attr": {"value": {"tensor": {"dtype": "DT_FLOAT", "tensorShape": {"dim": [{"size": "3"}, {"size": "3"}, {"size": "1"}, {"size": "1"}]}}}, "dtype": {"type": "DT_FLOAT"}}}, {"name": "model_40/tf.nn.convolution_113/convolution/filter", "op": "Const", "attr": {"value": {"tensor": {"dtype": "DT_FLOAT", "tensorShape": {"dim": [{"size": "3"}, {"size": "3"}, {"size": "1"}, {"size": "1"}]}}}, "dtype": {"type": "DT_FLOAT"}}}, {"name": "model_40/tf.nn.convolution_114/convolution/filter", "op": "Const", "attr": {"value": {"tensor": {"dtype": "DT_FLOAT", "tensorShape": {"dim": [{"size": "3"}, {"size": "3"}, {"size": "1"}, {"size": "1"}]}}}, "dtype": {"type": "DT_FLOAT"}}}, {"name": "model_40/tf.nn.convolution_115/convolution/filter", "op": "Const", "attr": {"value": {"tensor": {"dtype": "DT_FLOAT", "tensorShape": {"dim": [{"size": "3"}, {"size": "3"}, {"size": "1"}, {"size": "1"}]}}}, "dtype": {"type": "DT_FLOAT"}}}, {"name": "model_40/tf.nn.convolution_116/convolution/filter", "op": "Const", "attr": {"value": {"tensor": {"dtype": "DT_FLOAT", "tensorShape": {"dim": [{"size": "3"}, {"size": "3"}, {"size": "1"}, {"size": "1"}]}}}, "dtype": {"type": "DT_FLOAT"}}}, {"name": "model_40/tf.nn.convolution_117/convolution/filter", "op": "Const", "attr": {"value": {"tensor": {"dtype": "DT_FLOAT", "tensorShape": {"dim": [{"size": "3"}, {"size": "3"}, {"size": "1"}, {"size": "1"}]}}}, "dtype": {"type": "DT_FLOAT"}}}, {"name": "model_40/tf.nn.convolution_118/convolution/filter", "op": "Const", "attr": {"value": {"tensor": {"dtype": "DT_FLOAT", "tensorShape": {"dim": [{"size": "3"}, {"size": "3"}, {"size": "1"}, {"size": "1"}]}}}, "dtype": {"type": "DT_FLOAT"}}}, {"name": "model_40/tf.nn.convolution_119/convolution/filter", "op": "Const", "attr": {"value": {"tensor": {"dtype": "DT_FLOAT", "tensorShape": {"dim": [{"size": "3"}, {"size": "3"}, {"size": "1"}, {"size": "1"}]}}}, "dtype": {"type": "DT_FLOAT"}}}, {"name": "model_40/tf.nn.convolution_120/convolution/filter", "op": "Const", "attr": {"value": {"tensor": {"dtype": "DT_FLOAT", "tensorShape": {"dim": [{"size": "3"}, {"size": "3"}, {"size": "1"}, {"size": "1"}]}}}, "dtype": {"type": "DT_FLOAT"}}}, {"name": "model_40/tf.nn.convolution_121/convolution/filter", "op": "Const", "attr": {"value": {"tensor": {"dtype": "DT_FLOAT", "tensorShape": {"dim": [{"size": "3"}, {"size": "3"}, {"size": "1"}, {"size": "1"}]}}}, "dtype": {"type": "DT_FLOAT"}}}, {"name": "model_40/tf.nn.convolution_122/convolution/filter", "op": "Const", "attr": {"value": {"tensor": {"dtype": "DT_FLOAT", "tensorShape": {"dim": [{"size": "3"}, {"size": "3"}, {"size": "1"}, {"size": "1"}]}}}, "dtype": {"type": "DT_FLOAT"}}}, {"name": "model_40/tf.nn.convolution_123/convolution/filter", "op": "Const", "attr": {"value": {"tensor": {"dtype": "DT_FLOAT", "tensorShape": {"dim": [{"size": "3"}, {"size": "3"}, {"size": "1"}, {"size": "1"}]}}}, "dtype": {"type": "DT_FLOAT"}}}, {"name": "model_40/tf.nn.convolution_124/convolution/filter", "op": "Const", "attr": {"value": {"tensor": {"dtype": "DT_FLOAT", "tensorShape": {"dim": [{"size": "3"}, {"size": "3"}, {"size": "1"}, {"size": "1"}]}}}, "dtype": {"type": "DT_FLOAT"}}}, {"name": "model_40/tf.nn.convolution_125/convolution/filter", "op": "Const", "attr": {"value": {"tensor": {"dtype": "DT_FLOAT", "tensorShape": {"dim": [{"size": "3"}, {"size": "3"}, {"size": "1"}, {"size": "1"}]}}}, "dtype": {"type": "DT_FLOAT"}}}, {"name": "model_40/tf.nn.convolution_126/convolution/filter", "op": "Const", "attr": {"value": {"tensor": {"dtype": "DT_FLOAT", "tensorShape": {"dim": [{"size": "3"}, {"size": "3"}, {"size": "1"}, {"size": "1"}]}}}, "dtype": {"type": "DT_FLOAT"}}}, {"name": "model_40/tf.nn.convolution_127/convolution/filter", "op": "Const", "attr": {"value": {"tensor": {"dtype": "DT_FLOAT", "tensorShape": {"dim": [{"size": "3"}, {"size": "3"}, {"size": "1"}, {"size": "1"}]}}}, "dtype": {"type": "DT_FLOAT"}}}, {"name": "model_40/tf.nn.convolution_128/convolution/filter", "op": "Const", "attr": {"value": {"tensor": {"dtype": "DT_FLOAT", "tensorShape": {"dim": [{"size": "3"}, {"size": "3"}, {"size": "1"}, {"size": "1"}]}}}, "dtype": {"type": "DT_FLOAT"}}}, {"name": "model_40/tf.nn.convolution_129/convolution/filter", "op": "Const", "attr": {"value": {"tensor": {"dtype": "DT_FLOAT", "tensorShape": {"dim": [{"size": "3"}, {"size": "3"}, {"size": "1"}, {"size": "1"}]}}}, "dtype": {"type": "DT_FLOAT"}}}, {"name": "model_40/tf.nn.convolution_130/convolution/filter", "op": "Const", "attr": {"value": {"tensor": {"dtype": "DT_FLOAT", "tensorShape": {"dim": [{"size": "3"}, {"size": "3"}, {"size": "1"}, {"size": "1"}]}}}, "dtype": {"type": "DT_FLOAT"}}}, {"name": "model_40/tf.nn.convolution_131/convolution/filter", "op": "Const", "attr": {"value": {"tensor": {"dtype": "DT_FLOAT", "tensorShape": {"dim": [{"size": "3"}, {"size": "3"}, {"size": "1"}, {"size": "1"}]}}}, "dtype": {"type": "DT_FLOAT"}}}, {"name": "model_40/tf.nn.convolution_132/convolution/filter", "op": "Const", "attr": {"value": {"tensor": {"dtype": "DT_FLOAT", "tensorShape": {"dim": [{"size": "3"}, {"size": "3"}, {"size": "1"}, {"size": "1"}]}}}, "dtype": {"type": "DT_FLOAT"}}}, {"name": "model_40/tf.nn.convolution_133/convolution/filter", "op": "Const", "attr": {"value": {"tensor": {"dtype": "DT_FLOAT", "tensorShape": {"dim": [{"size": "3"}, {"size": "3"}, {"size": "1"}, {"size": "1"}]}}}, "dtype": {"type": "DT_FLOAT"}}}, {"name": "model_40/tf.nn.convolution_134/convolution/filter", "op": "Const", "attr": {"value": {"tensor": {"dtype": "DT_FLOAT", "tensorShape": {"dim": [{"size": "3"}, {"size": "3"}, {"size": "1"}, {"size": "1"}]}}}, "dtype": {"type": "DT_FLOAT"}}}, {"name": "model_40/tf.nn.convolution_135/convolution/filter", "op": "Const", "attr": {"value": {"tensor": {"dtype": "DT_FLOAT", "tensorShape": {"dim": [{"size": "3"}, {"size": "3"}, {"size": "1"}, {"size": "1"}]}}}, "dtype": {"type": "DT_FLOAT"}}}, {"name": "model_40/tf.nn.convolution_136/convolution/filter", "op": "Const", "attr": {"value": {"tensor": {"dtype": "DT_FLOAT", "tensorShape": {"dim": [{"size": "3"}, {"size": "3"}, {"size": "1"}, {"size": "1"}]}}}, "dtype": {"type": "DT_FLOAT"}}}, {"name": "model_40/tf.nn.convolution_137/convolution/filter", "op": "Const", "attr": {"value": {"tensor": {"dtype": "DT_FLOAT", "tensorShape": {"dim": [{"size": "3"}, {"size": "3"}, {"size": "1"}, {"size": "1"}]}}}, "dtype": {"type": "DT_FLOAT"}}}, {"name": "model_40/tf.nn.convolution_138/convolution/filter", "op": "Const", "attr": {"value": {"tensor": {"dtype": "DT_FLOAT", "tensorShape": {"dim": [{"size": "3"}, {"size": "3"}, {"size": "1"}, {"size": "1"}]}}}, "dtype": {"type": "DT_FLOAT"}}}, {"name": "model_40/tf.nn.convolution_139/convolution/filter", "op": "Const", "attr": {"value": {"tensor": {"dtype": "DT_FLOAT", "tensorShape": {"dim": [{"size": "3"}, {"size": "3"}, {"size": "1"}, {"size": "1"}]}}}, "dtype": {"type": "DT_FLOAT"}}}, {"name": "model_40/tf.nn.convolution_140/convolution/filter", "op": "Const", "attr": {"value": {"tensor": {"dtype": "DT_FLOAT", "tensorShape": {"dim": [{"size": "3"}, {"size": "3"}, {"size": "1"}, {"size": "1"}]}}}, "dtype": {"type": "DT_FLOAT"}}}, {"name": "model_40/tf.nn.convolution_141/convolution/filter", "op": "Const", "attr": {"value": {"tensor": {"dtype": "DT_FLOAT", "tensorShape": {"dim": [{"size": "3"}, {"size": "3"}, {"size": "1"}, {"size": "1"}]}}}, "dtype": {"type": "DT_FLOAT"}}}, {"name": "model_40/tf.nn.convolution_142/convolution/filter", "op": "Const", "attr": {"value": {"tensor": {"dtype": "DT_FLOAT", "tensorShape": {"dim": [{"size": "3"}, {"size": "3"}, {"size": "1"}, {"size": "1"}]}}}, "dtype": {"type": "DT_FLOAT"}}}, {"name": "model_40/tf.nn.convolution_143/convolution/filter", "op": "Const", "attr": {"value": {"tensor": {"dtype": "DT_FLOAT", "tensorShape": {"dim": [{"size": "3"}, {"size": "3"}, {"size": "1"}, {"size": "1"}]}}}, "dtype": {"type": "DT_FLOAT"}}}, {"name": "model_40/tf.nn.convolution_144/convolution/filter", "op": "Const", "attr": {"value": {"tensor": {"dtype": "DT_FLOAT", "tensorShape": {"dim": [{"size": "3"}, {"size": "3"}, {"size": "1"}, {"size": "1"}]}}}, "dtype": {"type": "DT_FLOAT"}}}, {"name": "model_40/tf.nn.convolution_145/convolution/filter", "op": "Const", "attr": {"value": {"tensor": {"dtype": "DT_FLOAT", "tensorShape": {"dim": [{"size": "3"}, {"size": "3"}, {"size": "1"}, {"size": "1"}]}}}, "dtype": {"type": "DT_FLOAT"}}}, {"name": "model_40/tf.nn.convolution_146/convolution/filter", "op": "Const", "attr": {"value": {"tensor": {"dtype": "DT_FLOAT", "tensorShape": {"dim": [{"size": "3"}, {"size": "3"}, {"size": "1"}, {"size": "1"}]}}}, "dtype": {"type": "DT_FLOAT"}}}, {"name": "model_40/tf.nn.convolution_147/convolution/filter", "op": "Const", "attr": {"value": {"tensor": {"dtype": "DT_FLOAT", "tensorShape": {"dim": [{"size": "3"}, {"size": "3"}, {"size": "1"}, {"size": "1"}]}}}, "dtype": {"type": "DT_FLOAT"}}}, {"name": "model_40/tf.nn.convolution_148/convolution/filter", "op": "Const", "attr": {"value": {"tensor": {"dtype": "DT_FLOAT", "tensorShape": {"dim": [{"size": "3"}, {"size": "3"}, {"size": "1"}, {"size": "1"}]}}}, "dtype": {"type": "DT_FLOAT"}}}, {"name": "model_40/tf.nn.convolution_149/convolution/filter", "op": "Const", "attr": {"value": {"tensor": {"dtype": "DT_FLOAT", "tensorShape": {"dim": [{"size": "3"}, {"size": "3"}, {"size": "1"}, {"size": "1"}]}}}, "dtype": {"type": "DT_FLOAT"}}}, {"name": "model_40/tf.nn.convolution_150/convolution/filter", "op": "Const", "attr": {"value": {"tensor": {"dtype": "DT_FLOAT", "tensorShape": {"dim": [{"size": "3"}, {"size": "3"}, {"size": "1"}, {"size": "1"}]}}}, "dtype": {"type": "DT_FLOAT"}}}, {"name": "model_40/tf.nn.convolution_151/convolution/filter", "op": "Const", "attr": {"value": {"tensor": {"dtype": "DT_FLOAT", "tensorShape": {"dim": [{"size": "3"}, {"size": "3"}, {"size": "1"}, {"size": "1"}]}}}, "dtype": {"type": "DT_FLOAT"}}}, {"name": "model_40/tf.split/split/split_dim", "op": "Const", "attr": {"value": {"tensor": {"dtype": "DT_INT32", "tensorShape": {}}}, "dtype": {"type": "DT_INT32"}}}, {"name": "model_40/tf.strided_slice_6/ones_like/tensor", "op": "Const", "attr": {"value": {"tensor": {"dtype": "DT_INT64", "tensorShape": {"dim": [{"size": "4"}]}}}, "dtype": {"type": "DT_INT64"}}}, {"name": "model_40/tf.strided_slice_6/StridedSlice/end", "op": "Const", "attr": {"value": {"tensor": {"dtype": "DT_INT64", "tensorShape": {"dim": [{"size": "4"}]}}}, "dtype": {"type": "DT_INT64"}}}, {"name": "model_40/tf.strided_slice_6/ones_like", "op": "Const", "attr": {"value": {"tensor": {"dtype": "DT_INT64", "tensorShape": {"dim": [{"size": "4"}]}}}, "dtype": {"type": "DT_INT64"}}}, {"name": "model_40/tf.nn.convolution_18/convolution/filter", "op": "Const", "attr": {"value": {"tensor": {"dtype": "DT_FLOAT", "tensorShape": {"dim": [{"size": "1"}, {"size": "1"}, {"size": "128"}, {"size": "32"}]}}}, "dtype": {"type": "DT_FLOAT"}}}, {"name": "model_40/tf.math.add_30/Add/y", "op": "Const", "attr": {"value": {"tensor": {"dtype": "DT_FLOAT", "tensorShape": {"dim": [{"size": "32"}]}}}, "dtype": {"type": "DT_FLOAT"}}}, {"name": "model_40/tf.compat.v1.nn.depthwise_conv2d_6/depthwise/filter_in", "op": "Const", "attr": {"value": {"tensor": {"dtype": "DT_FLOAT", "tensorShape": {"dim": [{"size": "5"}, {"size": "5"}, {"size": "32"}, {"size": "1"}]}}}, "dtype": {"type": "DT_FLOAT"}}}, {"name": "model_40/tf.math.add_31/Add/y", "op": "Const", "attr": {"value": {"tensor": {"dtype": "DT_FLOAT", "tensorShape": {"dim": [{"size": "32"}]}}}, "dtype": {"type": "DT_FLOAT"}}}, {"name": "model_40/tf.concat_9/concat/axis", "op": "Const", "attr": {"value": {"tensor": {"dtype": "DT_INT32", "tensorShape": {}}}, "dtype": {"type": "DT_INT32"}}}, {"name": "model_40/tf.nn.convolution_19/convolution/filter", "op": "Const", "attr": {"value": {"tensor": {"dtype": "DT_FLOAT", "tensorShape": {"dim": [{"size": "1"}, {"size": "1"}, {"size": "64"}, {"size": "64"}]}}}, "dtype": {"type": "DT_FLOAT"}}}, {"name": "model_40/tf.math.add_32/Add/y", "op": "Const", "attr": {"value": {"tensor": {"dtype": "DT_FLOAT", "tensorShape": {"dim": [{"size": "64"}]}}}, "dtype": {"type": "DT_FLOAT"}}}, {"name": "model_40/tf.compat.v1.nn.depthwise_conv2d_7/depthwise/filter_in", "op": "Const", "attr": {"value": {"tensor": {"dtype": "DT_FLOAT", "tensorShape": {"dim": [{"size": "5"}, {"size": "5"}, {"size": "64"}, {"size": "1"}]}}}, "dtype": {"type": "DT_FLOAT"}}}, {"name": "model_40/tf.math.add_33/Add/y", "op": "Const", "attr": {"value": {"tensor": {"dtype": "DT_FLOAT", "tensorShape": {"dim": [{"size": "64"}]}}}, "dtype": {"type": "DT_FLOAT"}}}, {"name": "model_40/tf.concat_10/concat/axis", "op": "Const", "attr": {"value": {"tensor": {"dtype": "DT_INT32", "tensorShape": {}}}, "dtype": {"type": "DT_INT32"}}}, {"name": "model_40/tf.strided_slice_4/ones_like/tensor", "op": "Const", "attr": {"value": {"tensor": {"dtype": "DT_INT64", "tensorShape": {"dim": [{"size": "4"}]}}}, "dtype": {"type": "DT_INT64"}}}, {"name": "model_40/tf.strided_slice_4/StridedSlice/end", "op": "Const", "attr": {"value": {"tensor": {"dtype": "DT_INT64", "tensorShape": {"dim": [{"size": "4"}]}}}, "dtype": {"type": "DT_INT64"}}}, {"name": "model_40/tf.strided_slice_4/ones_like", "op": "Const", "attr": {"value": {"tensor": {"dtype": "DT_INT64", "tensorShape": {"dim": [{"size": "4"}]}}}, "dtype": {"type": "DT_INT64"}}}, {"name": "model_40/tf.nn.convolution_13/convolution/filter", "op": "Const", "attr": {"value": {"tensor": {"dtype": "DT_FLOAT", "tensorShape": {"dim": [{"size": "1"}, {"size": "1"}, {"size": "64"}, {"size": "16"}]}}}, "dtype": {"type": "DT_FLOAT"}}}, {"name": "model_40/tf.math.add_21/Add/y", "op": "Const", "attr": {"value": {"tensor": {"dtype": "DT_FLOAT", "tensorShape": {"dim": [{"size": "16"}]}}}, "dtype": {"type": "DT_FLOAT"}}}, {"name": "model_40/tf.compat.v1.nn.depthwise_conv2d_4/depthwise/filter_in", "op": "Const", "attr": {"value": {"tensor": {"dtype": "DT_FLOAT", "tensorShape": {"dim": [{"size": "5"}, {"size": "5"}, {"size": "16"}, {"size": "1"}]}}}, "dtype": {"type": "DT_FLOAT"}}}, {"name": "model_40/tf.math.add_22/Add/y", "op": "Const", "attr": {"value": {"tensor": {"dtype": "DT_FLOAT", "tensorShape": {"dim": [{"size": "16"}]}}}, "dtype": {"type": "DT_FLOAT"}}}, {"name": "model_40/tf.concat_6/concat/axis", "op": "Const", "attr": {"value": {"tensor": {"dtype": "DT_INT32", "tensorShape": {}}}, "dtype": {"type": "DT_INT32"}}}, {"name": "model_40/tf.nn.convolution_14/convolution/filter", "op": "Const", "attr": {"value": {"tensor": {"dtype": "DT_FLOAT", "tensorShape": {"dim": [{"size": "1"}, {"size": "1"}, {"size": "32"}, {"size": "32"}]}}}, "dtype": {"type": "DT_FLOAT"}}}, {"name": "model_40/tf.math.add_23/Add/y", "op": "Const", "attr": {"value": {"tensor": {"dtype": "DT_FLOAT", "tensorShape": {"dim": [{"size": "32"}]}}}, "dtype": {"type": "DT_FLOAT"}}}, {"name": "model_40/tf.compat.v1.nn.depthwise_conv2d_5/depthwise/filter_in", "op": "Const", "attr": {"value": {"tensor": {"dtype": "DT_FLOAT", "tensorShape": {"dim": [{"size": "5"}, {"size": "5"}, {"size": "32"}, {"size": "1"}]}}}, "dtype": {"type": "DT_FLOAT"}}}, {"name": "model_40/tf.math.add_24/Add/y", "op": "Const", "attr": {"value": {"tensor": {"dtype": "DT_FLOAT", "tensorShape": {"dim": [{"size": "32"}]}}}, "dtype": {"type": "DT_FLOAT"}}}, {"name": "model_40/tf.concat_7/concat/axis", "op": "Const", "attr": {"value": {"tensor": {"dtype": "DT_INT32", "tensorShape": {}}}, "dtype": {"type": "DT_INT32"}}}, {"name": "model_40/tf.strided_slice_2/ones_like/tensor", "op": "Const", "attr": {"value": {"tensor": {"dtype": "DT_INT64", "tensorShape": {"dim": [{"size": "4"}]}}}, "dtype": {"type": "DT_INT64"}}}, {"name": "model_40/tf.strided_slice_2/StridedSlice/end", "op": "Const", "attr": {"value": {"tensor": {"dtype": "DT_INT64", "tensorShape": {"dim": [{"size": "4"}]}}}, "dtype": {"type": "DT_INT64"}}}, {"name": "model_40/tf.strided_slice_2/ones_like", "op": "Const", "attr": {"value": {"tensor": {"dtype": "DT_INT64", "tensorShape": {"dim": [{"size": "4"}]}}}, "dtype": {"type": "DT_INT64"}}}, {"name": "model_40/tf.nn.convolution_8/convolution/filter", "op": "Const", "attr": {"value": {"tensor": {"dtype": "DT_FLOAT", "tensorShape": {"dim": [{"size": "1"}, {"size": "1"}, {"size": "32"}, {"size": "8"}]}}}, "dtype": {"type": "DT_FLOAT"}}}, {"name": "model_40/tf.math.add_12/Add/y", "op": "Const", "attr": {"value": {"tensor": {"dtype": "DT_FLOAT", "tensorShape": {"dim": [{"size": "8"}]}}}, "dtype": {"type": "DT_FLOAT"}}}, {"name": "model_40/tf.compat.v1.nn.depthwise_conv2d_2/depthwise/filter_in", "op": "Const", "attr": {"value": {"tensor": {"dtype": "DT_FLOAT", "tensorShape": {"dim": [{"size": "5"}, {"size": "5"}, {"size": "8"}, {"size": "1"}]}}}, "dtype": {"type": "DT_FLOAT"}}}, {"name": "model_40/tf.math.add_13/Add/y", "op": "Const", "attr": {"value": {"tensor": {"dtype": "DT_FLOAT", "tensorShape": {"dim": [{"size": "8"}]}}}, "dtype": {"type": "DT_FLOAT"}}}, {"name": "model_40/tf.concat_3/concat/axis", "op": "Const", "attr": {"value": {"tensor": {"dtype": "DT_INT32", "tensorShape": {}}}, "dtype": {"type": "DT_INT32"}}}, {"name": "model_40/tf.nn.convolution_9/convolution/filter", "op": "Const", "attr": {"value": {"tensor": {"dtype": "DT_FLOAT", "tensorShape": {"dim": [{"size": "1"}, {"size": "1"}, {"size": "16"}, {"size": "16"}]}}}, "dtype": {"type": "DT_FLOAT"}}}, {"name": "model_40/tf.math.add_14/Add/y", "op": "Const", "attr": {"value": {"tensor": {"dtype": "DT_FLOAT", "tensorShape": {"dim": [{"size": "16"}]}}}, "dtype": {"type": "DT_FLOAT"}}}, {"name": "model_40/tf.compat.v1.nn.depthwise_conv2d_3/depthwise/filter_in", "op": "Const", "attr": {"value": {"tensor": {"dtype": "DT_FLOAT", "tensorShape": {"dim": [{"size": "5"}, {"size": "5"}, {"size": "16"}, {"size": "1"}]}}}, "dtype": {"type": "DT_FLOAT"}}}, {"name": "model_40/tf.math.add_15/Add/y", "op": "Const", "attr": {"value": {"tensor": {"dtype": "DT_FLOAT", "tensorShape": {"dim": [{"size": "16"}]}}}, "dtype": {"type": "DT_FLOAT"}}}, {"name": "model_40/tf.concat_4/concat/axis", "op": "Const", "attr": {"value": {"tensor": {"dtype": "DT_INT32", "tensorShape": {}}}, "dtype": {"type": "DT_INT32"}}}, {"name": "model_40/tf.strided_slice/ones_like/tensor", "op": "Const", "attr": {"value": {"tensor": {"dtype": "DT_INT64", "tensorShape": {"dim": [{"size": "4"}]}}}, "dtype": {"type": "DT_INT64"}}}, {"name": "model_40/tf.strided_slice/StridedSlice/end", "op": "Const", "attr": {"value": {"tensor": {"dtype": "DT_INT64", "tensorShape": {"dim": [{"size": "4"}]}}}, "dtype": {"type": "DT_INT64"}}}, {"name": "model_40/tf.strided_slice/ones_like", "op": "Const", "attr": {"value": {"tensor": {"dtype": "DT_INT64", "tensorShape": {"dim": [{"size": "4"}]}}}, "dtype": {"type": "DT_INT64"}}}, {"name": "model_40/tf.nn.convolution_3/convolution/filter", "op": "Const", "attr": {"value": {"tensor": {"dtype": "DT_FLOAT", "tensorShape": {"dim": [{"size": "1"}, {"size": "1"}, {"size": "16"}, {"size": "4"}]}}}, "dtype": {"type": "DT_FLOAT"}}}, {"name": "model_40/tf.math.add_3/Add/y", "op": "Const", "attr": {"value": {"tensor": {"dtype": "DT_FLOAT", "tensorShape": {"dim": [{"size": "4"}]}}}, "dtype": {"type": "DT_FLOAT"}}}, {"name": "model_40/tf.compat.v1.nn.depthwise_conv2d/depthwise/filter_in", "op": "Const", "attr": {"value": {"tensor": {"dtype": "DT_FLOAT", "tensorShape": {"dim": [{"size": "5"}, {"size": "5"}, {"size": "4"}, {"size": "1"}]}}}, "dtype": {"type": "DT_FLOAT"}}}, {"name": "model_40/tf.math.add_4/Add/y", "op": "Const", "attr": {"value": {"tensor": {"dtype": "DT_FLOAT", "tensorShape": {"dim": [{"size": "4"}]}}}, "dtype": {"type": "DT_FLOAT"}}}, {"name": "model_40/tf.concat/concat/axis", "op": "Const", "attr": {"value": {"tensor": {"dtype": "DT_INT32", "tensorShape": {}}}, "dtype": {"type": "DT_INT32"}}}, {"name": "model_40/tf.nn.convolution_4/convolution/filter", "op": "Const", "attr": {"value": {"tensor": {"dtype": "DT_FLOAT", "tensorShape": {"dim": [{"size": "1"}, {"size": "1"}, {"size": "8"}, {"size": "8"}]}}}, "dtype": {"type": "DT_FLOAT"}}}, {"name": "model_40/tf.math.add_5/Add/y", "op": "Const", "attr": {"value": {"tensor": {"dtype": "DT_FLOAT", "tensorShape": {"dim": [{"size": "8"}]}}}, "dtype": {"type": "DT_FLOAT"}}}, {"name": "model_40/tf.compat.v1.nn.depthwise_conv2d_1/depthwise/filter_in", "op": "Const", "attr": {"value": {"tensor": {"dtype": "DT_FLOAT", "tensorShape": {"dim": [{"size": "5"}, {"size": "5"}, {"size": "8"}, {"size": "1"}]}}}, "dtype": {"type": "DT_FLOAT"}}}, {"name": "model_40/tf.math.add_6/Add/y", "op": "Const", "attr": {"value": {"tensor": {"dtype": "DT_FLOAT", "tensorShape": {"dim": [{"size": "8"}]}}}, "dtype": {"type": "DT_FLOAT"}}}, {"name": "model_40/tf.concat_1/concat/axis", "op": "Const", "attr": {"value": {"tensor": {"dtype": "DT_INT32", "tensorShape": {}}}, "dtype": {"type": "DT_INT32"}}}, {"name": "model_40/tf.compat.v1.pad/Pad/paddings", "op": "Const", "attr": {"value": {"tensor": {"dtype": "DT_INT32", "tensorShape": {"dim": [{"size": "4"}, {"size": "2"}]}}}, "dtype": {"type": "DT_INT32"}}}, {"name": "model_40/tf.nn.convolution/convolution/filter", "op": "Const", "attr": {"value": {"tensor": {"dtype": "DT_FLOAT", "tensorShape": {"dim": [{"size": "3"}, {"size": "3"}, {"size": "3"}, {"size": "16"}]}}}, "dtype": {"type": "DT_FLOAT"}}}, {"name": "model_40/tf.math.add/Add/y", "op": "Const", "attr": {"value": {"tensor": {"dtype": "DT_FLOAT", "tensorShape": {"dim": [{"size": "16"}]}}}, "dtype": {"type": "DT_FLOAT"}}}, {"name": "model_40/tf.compat.v1.pad_1/Pad/paddings", "op": "Const", "attr": {"value": {"tensor": {"dtype": "DT_INT32", "tensorShape": {"dim": [{"size": "4"}, {"size": "2"}]}}}, "dtype": {"type": "DT_INT32"}}}, {"name": "model_40/tf.nn.convolution_1/convolution/filter", "op": "Const", "attr": {"value": {"tensor": {"dtype": "DT_FLOAT", "tensorShape": {"dim": [{"size": "3"}, {"size": "3"}, {"size": "16"}, {"size": "32"}]}}}, "dtype": {"type": "DT_FLOAT"}}}, {"name": "model_40/tf.math.add_1/Add/y", "op": "Const", "attr": {"value": {"tensor": {"dtype": "DT_FLOAT", "tensorShape": {"dim": [{"size": "32"}]}}}, "dtype": {"type": "DT_FLOAT"}}}, {"name": "model_40/tf.nn.convolution_2/convolution/filter", "op": "Const", "attr": {"value": {"tensor": {"dtype": "DT_FLOAT", "tensorShape": {"dim": [{"size": "1"}, {"size": "1"}, {"size": "32"}, {"size": "32"}]}}}, "dtype": {"type": "DT_FLOAT"}}}, {"name": "model_40/tf.math.add_2/Add/y", "op": "Const", "attr": {"value": {"tensor": {"dtype": "DT_FLOAT", "tensorShape": {"dim": [{"size": "32"}]}}}, "dtype": {"type": "DT_FLOAT"}}}, {"name": "model_40/tf.strided_slice_1/ones_like/tensor", "op": "Const", "attr": {"value": {"tensor": {"dtype": "DT_INT64", "tensorShape": {"dim": [{"size": "4"}]}}}, "dtype": {"type": "DT_INT64"}}}, {"name": "model_40/tf.strided_slice_1/StridedSlice/end", "op": "Const", "attr": {"value": {"tensor": {"dtype": "DT_INT64", "tensorShape": {"dim": [{"size": "4"}]}}}, "dtype": {"type": "DT_INT64"}}}, {"name": "model_40/tf.strided_slice_1/ones_like", "op": "Const", "attr": {"value": {"tensor": {"dtype": "DT_INT64", "tensorShape": {"dim": [{"size": "4"}]}}}, "dtype": {"type": "DT_INT64"}}}, {"name": "model_40/tf.concat_2/concat/axis", "op": "Const", "attr": {"value": {"tensor": {"dtype": "DT_INT32", "tensorShape": {}}}, "dtype": {"type": "DT_INT32"}}}, {"name": "model_40/tf.nn.convolution_5/convolution/filter", "op": "Const", "attr": {"value": {"tensor": {"dtype": "DT_FLOAT", "tensorShape": {"dim": [{"size": "1"}, {"size": "1"}, {"size": "48"}, {"size": "64"}]}}}, "dtype": {"type": "DT_FLOAT"}}}, {"name": "model_40/tf.math.add_9/Add/y", "op": "Const", "attr": {"value": {"tensor": {"dtype": "DT_FLOAT", "tensorShape": {"dim": [{"size": "64"}]}}}, "dtype": {"type": "DT_FLOAT"}}}, {"name": "model_40/tf.compat.v1.pad_2/Pad/paddings", "op": "Const", "attr": {"value": {"tensor": {"dtype": "DT_INT32", "tensorShape": {"dim": [{"size": "4"}, {"size": "2"}]}}}, "dtype": {"type": "DT_INT32"}}}, {"name": "model_40/tf.nn.convolution_6/convolution/filter", "op": "Const", "attr": {"value": {"tensor": {"dtype": "DT_FLOAT", "tensorShape": {"dim": [{"size": "3"}, {"size": "3"}, {"size": "64"}, {"size": "64"}]}}}, "dtype": {"type": "DT_FLOAT"}}}, {"name": "model_40/tf.math.add_10/Add/y", "op": "Const", "attr": {"value": {"tensor": {"dtype": "DT_FLOAT", "tensorShape": {"dim": [{"size": "64"}]}}}, "dtype": {"type": "DT_FLOAT"}}}, {"name": "model_40/tf.nn.convolution_7/convolution/filter", "op": "Const", "attr": {"value": {"tensor": {"dtype": "DT_FLOAT", "tensorShape": {"dim": [{"size": "1"}, {"size": "1"}, {"size": "64"}, {"size": "64"}]}}}, "dtype": {"type": "DT_FLOAT"}}}, {"name": "model_40/tf.math.add_11/Add/y", "op": "Const", "attr": {"value": {"tensor": {"dtype": "DT_FLOAT", "tensorShape": {"dim": [{"size": "64"}]}}}, "dtype": {"type": "DT_FLOAT"}}}, {"name": "model_40/tf.strided_slice_3/ones_like/tensor", "op": "Const", "attr": {"value": {"tensor": {"dtype": "DT_INT64", "tensorShape": {"dim": [{"size": "4"}]}}}, "dtype": {"type": "DT_INT64"}}}, {"name": "model_40/tf.strided_slice_3/StridedSlice/end", "op": "Const", "attr": {"value": {"tensor": {"dtype": "DT_INT64", "tensorShape": {"dim": [{"size": "4"}]}}}, "dtype": {"type": "DT_INT64"}}}, {"name": "model_40/tf.strided_slice_3/ones_like", "op": "Const", "attr": {"value": {"tensor": {"dtype": "DT_INT64", "tensorShape": {"dim": [{"size": "4"}]}}}, "dtype": {"type": "DT_INT64"}}}, {"name": "model_40/tf.concat_5/concat/axis", "op": "Const", "attr": {"value": {"tensor": {"dtype": "DT_INT32", "tensorShape": {}}}, "dtype": {"type": "DT_INT32"}}}, {"name": "model_40/tf.nn.convolution_10/convolution/filter", "op": "Const", "attr": {"value": {"tensor": {"dtype": "DT_FLOAT", "tensorShape": {"dim": [{"size": "1"}, {"size": "1"}, {"size": "96"}, {"size": "128"}]}}}, "dtype": {"type": "DT_FLOAT"}}}, {"name": "model_40/tf.math.add_18/Add/y", "op": "Const", "attr": {"value": {"tensor": {"dtype": "DT_FLOAT", "tensorShape": {"dim": [{"size": "128"}]}}}, "dtype": {"type": "DT_FLOAT"}}}, {"name": "model_40/tf.compat.v1.pad_3/Pad/paddings", "op": "Const", "attr": {"value": {"tensor": {"dtype": "DT_INT32", "tensorShape": {"dim": [{"size": "4"}, {"size": "2"}]}}}, "dtype": {"type": "DT_INT32"}}}, {"name": "model_40/tf.nn.convolution_11/convolution/filter", "op": "Const", "attr": {"value": {"tensor": {"dtype": "DT_FLOAT", "tensorShape": {"dim": [{"size": "3"}, {"size": "3"}, {"size": "128"}, {"size": "128"}]}}}, "dtype": {"type": "DT_FLOAT"}}}, {"name": "model_40/tf.math.add_19/Add/y", "op": "Const", "attr": {"value": {"tensor": {"dtype": "DT_FLOAT", "tensorShape": {"dim": [{"size": "128"}]}}}, "dtype": {"type": "DT_FLOAT"}}}, {"name": "model_40/tf.nn.convolution_12/convolution/filter", "op": "Const", "attr": {"value": {"tensor": {"dtype": "DT_FLOAT", "tensorShape": {"dim": [{"size": "1"}, {"size": "1"}, {"size": "128"}, {"size": "128"}]}}}, "dtype": {"type": "DT_FLOAT"}}}, {"name": "model_40/tf.math.add_20/Add/y", "op": "Const", "attr": {"value": {"tensor": {"dtype": "DT_FLOAT", "tensorShape": {"dim": [{"size": "128"}]}}}, "dtype": {"type": "DT_FLOAT"}}}, {"name": "model_40/tf.strided_slice_5/ones_like/tensor", "op": "Const", "attr": {"value": {"tensor": {"dtype": "DT_INT64", "tensorShape": {"dim": [{"size": "4"}]}}}, "dtype": {"type": "DT_INT64"}}}, {"name": "model_40/tf.strided_slice_5/StridedSlice/end", "op": "Const", "attr": {"value": {"tensor": {"dtype": "DT_INT64", "tensorShape": {"dim": [{"size": "4"}]}}}, "dtype": {"type": "DT_INT64"}}}, {"name": "model_40/tf.strided_slice_5/ones_like", "op": "Const", "attr": {"value": {"tensor": {"dtype": "DT_INT64", "tensorShape": {"dim": [{"size": "4"}]}}}, "dtype": {"type": "DT_INT64"}}}, {"name": "model_40/tf.concat_8/concat/axis", "op": "Const", "attr": {"value": {"tensor": {"dtype": "DT_INT32", "tensorShape": {}}}, "dtype": {"type": "DT_INT32"}}}, {"name": "model_40/tf.nn.convolution_15/convolution/filter", "op": "Const", "attr": {"value": {"tensor": {"dtype": "DT_FLOAT", "tensorShape": {"dim": [{"size": "1"}, {"size": "1"}, {"size": "192"}, {"size": "128"}]}}}, "dtype": {"type": "DT_FLOAT"}}}, {"name": "model_40/tf.math.add_27/Add/y", "op": "Const", "attr": {"value": {"tensor": {"dtype": "DT_FLOAT", "tensorShape": {"dim": [{"size": "128"}]}}}, "dtype": {"type": "DT_FLOAT"}}}, {"name": "model_40/tf.compat.v1.pad_4/Pad/paddings", "op": "Const", "attr": {"value": {"tensor": {"dtype": "DT_INT32", "tensorShape": {"dim": [{"size": "4"}, {"size": "2"}]}}}, "dtype": {"type": "DT_INT32"}}}, {"name": "model_40/tf.nn.convolution_16/convolution/filter", "op": "Const", "attr": {"value": {"tensor": {"dtype": "DT_FLOAT", "tensorShape": {"dim": [{"size": "3"}, {"size": "3"}, {"size": "128"}, {"size": "256"}]}}}, "dtype": {"type": "DT_FLOAT"}}}, {"name": "model_40/tf.math.add_28/Add/y", "op": "Const", "attr": {"value": {"tensor": {"dtype": "DT_FLOAT", "tensorShape": {"dim": [{"size": "256"}]}}}, "dtype": {"type": "DT_FLOAT"}}}, {"name": "model_40/tf.nn.convolution_17/convolution/filter", "op": "Const", "attr": {"value": {"tensor": {"dtype": "DT_FLOAT", "tensorShape": {"dim": [{"size": "1"}, {"size": "1"}, {"size": "256"}, {"size": "256"}]}}}, "dtype": {"type": "DT_FLOAT"}}}, {"name": "model_40/tf.math.add_29/Add/y", "op": "Const", "attr": {"value": {"tensor": {"dtype": "DT_FLOAT", "tensorShape": {"dim": [{"size": "256"}]}}}, "dtype": {"type": "DT_FLOAT"}}}, {"name": "model_40/tf.strided_slice_7/ones_like/tensor", "op": "Const", "attr": {"value": {"tensor": {"dtype": "DT_INT64", "tensorShape": {"dim": [{"size": "4"}]}}}, "dtype": {"type": "DT_INT64"}}}, {"name": "model_40/tf.strided_slice_7/StridedSlice/end", "op": "Const", "attr": {"value": {"tensor": {"dtype": "DT_INT64", "tensorShape": {"dim": [{"size": "4"}]}}}, "dtype": {"type": "DT_INT64"}}}, {"name": "model_40/tf.strided_slice_7/ones_like", "op": "Const", "attr": {"value": {"tensor": {"dtype": "DT_INT64", "tensorShape": {"dim": [{"size": "4"}]}}}, "dtype": {"type": "DT_INT64"}}}, {"name": "model_40/tf.concat_11/concat/axis", "op": "Const", "attr": {"value": {"tensor": {"dtype": "DT_INT32", "tensorShape": {}}}, "dtype": {"type": "DT_INT32"}}}, {"name": "model_40/tf.nn.convolution_20/convolution/filter", "op": "Const", "attr": {"value": {"tensor": {"dtype": "DT_FLOAT", "tensorShape": {"dim": [{"size": "1"}, {"size": "1"}, {"size": "384"}, {"size": "256"}]}}}, "dtype": {"type": "DT_FLOAT"}}}, {"name": "model_40/tf.math.add_36/Add/y", "op": "Const", "attr": {"value": {"tensor": {"dtype": "DT_FLOAT", "tensorShape": {"dim": [{"size": "256"}]}}}, "dtype": {"type": "DT_FLOAT"}}}, {"name": "model_40/tf.nn.convolution_21/convolution/filter", "op": "Const", "attr": {"value": {"tensor": {"dtype": "DT_FLOAT", "tensorShape": {"dim": [{"size": "1"}, {"size": "1"}, {"size": "256"}, {"size": "128"}]}}}, "dtype": {"type": "DT_FLOAT"}}}, {"name": "model_40/tf.math.add_37/Add/y", "op": "Const", "attr": {"value": {"tensor": {"dtype": "DT_FLOAT", "tensorShape": {"dim": [{"size": "128"}]}}}, "dtype": {"type": "DT_FLOAT"}}}, {"name": "model_40/tf.concat_12/concat/axis", "op": "Const", "attr": {"value": {"tensor": {"dtype": "DT_INT32", "tensorShape": {}}}, "dtype": {"type": "DT_INT32"}}}, {"name": "model_40/tf.nn.convolution_22/convolution/filter", "op": "Const", "attr": {"value": {"tensor": {"dtype": "DT_FLOAT", "tensorShape": {"dim": [{"size": "1"}, {"size": "1"}, {"size": "512"}, {"size": "256"}]}}}, "dtype": {"type": "DT_FLOAT"}}}, {"name": "model_40/tf.math.add_38/Add/y", "op": "Const", "attr": {"value": {"tensor": {"dtype": "DT_FLOAT", "tensorShape": {"dim": [{"size": "256"}]}}}, "dtype": {"type": "DT_FLOAT"}}}, {"name": "model_40/tf.nn.convolution_23/convolution/filter", "op": "Const", "attr": {"value": {"tensor": {"dtype": "DT_FLOAT", "tensorShape": {"dim": [{"size": "1"}, {"size": "1"}, {"size": "256"}, {"size": "256"}]}}}, "dtype": {"type": "DT_FLOAT"}}}, {"name": "model_40/tf.math.add_39/Add/y", "op": "Const", "attr": {"value": {"tensor": {"dtype": "DT_FLOAT", "tensorShape": {"dim": [{"size": "256"}]}}}, "dtype": {"type": "DT_FLOAT"}}}, {"name": "model_40/tf.strided_slice_9/StridedSlice/begin", "op": "Const", "attr": {"value": {"tensor": {"dtype": "DT_INT32", "tensorShape": {"dim": [{"size": "4"}]}}}, "dtype": {"type": "DT_INT32"}}}, {"name": "model_40/tf.strided_slice_9/StridedSlice/end", "op": "Const", "attr": {"value": {"tensor": {"dtype": "DT_INT32", "tensorShape": {"dim": [{"size": "4"}]}}}, "dtype": {"type": "DT_INT32"}}}, {"name": "model_40/tf.strided_slice_9/ones_like", "op": "Const", "attr": {"value": {"tensor": {"dtype": "DT_INT32", "tensorShape": {"dim": [{"size": "4"}]}}}, "dtype": {"type": "DT_INT32"}}}, {"name": "model_40/tf.nn.convolution_24/convolution/filter", "op": "Const", "attr": {"value": {"tensor": {"dtype": "DT_FLOAT", "tensorShape": {"dim": [{"size": "1"}, {"size": "1"}, {"size": "128"}, {"size": "256"}]}}}, "dtype": {"type": "DT_FLOAT"}}}, {"name": "model_40/tf.math.add_40/Add/y", "op": "Const", "attr": {"value": {"tensor": {"dtype": "DT_FLOAT", "tensorShape": {"dim": [{"size": "256"}]}}}, "dtype": {"type": "DT_FLOAT"}}}, {"name": "model_40/tf.compat.v1.transpose_30/transpose/perm", "op": "Const", "attr": {"value": {"tensor": {"dtype": "DT_INT32", "tensorShape": {"dim": [{"size": "4"}]}}}, "dtype": {"type": "DT_INT32"}}}, {"name": "model_40/tf.reshape_2/Reshape/shape", "op": "Const", "attr": {"value": {"tensor": {"dtype": "DT_INT32", "tensorShape": {"dim": [{"size": "4"}]}}}, "dtype": {"type": "DT_INT32"}}}, {"name": "model_40/tf.strided_slice_12/StridedSlice/begin", "op": "Const", "attr": {"value": {"tensor": {"dtype": "DT_INT32", "tensorShape": {"dim": [{"size": "4"}]}}}, "dtype": {"type": "DT_INT32"}}}, {"name": "model_40/tf.strided_slice_12/StridedSlice/end", "op": "Const", "attr": {"value": {"tensor": {"dtype": "DT_INT32", "tensorShape": {"dim": [{"size": "4"}]}}}, "dtype": {"type": "DT_INT32"}}}, {"name": "model_40/tf.strided_slice_12/ones_like", "op": "Const", "attr": {"value": {"tensor": {"dtype": "DT_INT32", "tensorShape": {"dim": [{"size": "4"}]}}}, "dtype": {"type": "DT_INT32"}}}, {"name": "model_40/tf.reshape_5/Reshape/shape", "op": "Const", "attr": {"value": {"tensor": {"dtype": "DT_INT32", "tensorShape": {"dim": [{"size": "4"}]}}}, "dtype": {"type": "DT_INT32"}}}, {"name": "model_40/tf.compat.v1.transpose_38/transpose/perm", "op": "Const", "attr": {"value": {"tensor": {"dtype": "DT_INT32", "tensorShape": {"dim": [{"size": "4"}]}}}, "dtype": {"type": "DT_INT32"}}}, {"name": "model_40/tf.nn.convolution_152/convolution/filter", "op": "Const", "attr": {"value": {"tensor": {"dtype": "DT_FLOAT", "tensorShape": {"dim": [{"size": "3"}, {"size": "3"}, {"size": "1"}, {"size": "1"}]}}}, "dtype": {"type": "DT_FLOAT"}}}, {"name": "model_40/tf.concat_13/concat/axis", "op": "Const", "attr": {"value": {"tensor": {"dtype": "DT_INT32", "tensorShape": {}}}, "dtype": {"type": "DT_INT32"}}}, {"name": "model_40/tf.nn.convolution_153/convolution/filter", "op": "Const", "attr": {"value": {"tensor": {"dtype": "DT_FLOAT", "tensorShape": {"dim": [{"size": "1"}, {"size": "1"}, {"size": "128"}, {"size": "128"}]}}}, "dtype": {"type": "DT_FLOAT"}}}, {"name": "model_40/tf.math.add_44/Add/y", "op": "Const", "attr": {"value": {"tensor": {"dtype": "DT_FLOAT", "tensorShape": {"dim": [{"size": "128"}]}}}, "dtype": {"type": "DT_FLOAT"}}}, {"name": "model_40/tf.nn.convolution_154/convolution/filter", "op": "Const", "attr": {"value": {"tensor": {"dtype": "DT_FLOAT", "tensorShape": {"dim": [{"size": "1"}, {"size": "1"}, {"size": "128"}, {"size": "256"}]}}}, "dtype": {"type": "DT_FLOAT"}}}, {"name": "model_40/tf.math.add_47/Add/y", "op": "Const", "attr": {"value": {"tensor": {"dtype": "DT_FLOAT", "tensorShape": {"dim": [{"size": "256"}]}}}, "dtype": {"type": "DT_FLOAT"}}}, {"name": "model_40/tf.nn.convolution_155/convolution/filter", "op": "Const", "attr": {"value": {"tensor": {"dtype": "DT_FLOAT", "tensorShape": {"dim": [{"size": "1"}, {"size": "1"}, {"size": "256"}, {"size": "128"}]}}}, "dtype": {"type": "DT_FLOAT"}}}, {"name": "model_40/tf.concat_14/concat/axis", "op": "Const", "attr": {"value": {"tensor": {"dtype": "DT_INT32", "tensorShape": {}}}, "dtype": {"type": "DT_INT32"}}}, {"name": "model_40/tf.nn.convolution_156/convolution/filter", "op": "Const", "attr": {"value": {"tensor": {"dtype": "DT_FLOAT", "tensorShape": {"dim": [{"size": "1"}, {"size": "1"}, {"size": "256"}, {"size": "256"}]}}}, "dtype": {"type": "DT_FLOAT"}}}, {"name": "model_40/tf.math.add_51/Add/y", "op": "Const", "attr": {"value": {"tensor": {"dtype": "DT_FLOAT", "tensorShape": {"dim": [{"size": "256"}]}}}, "dtype": {"type": "DT_FLOAT"}}}, {"name": "model_40/tf.concat_24/concat/axis", "op": "Const", "attr": {"value": {"tensor": {"dtype": "DT_INT32", "tensorShape": {}}}, "dtype": {"type": "DT_INT32"}}}, {"name": "model_40/tf.nn.convolution_185/convolution/filter", "op": "Const", "attr": {"value": {"tensor": {"dtype": "DT_FLOAT", "tensorShape": {"dim": [{"size": "1"}, {"size": "1"}, {"size": "384"}, {"size": "256"}]}}}, "dtype": {"type": "DT_FLOAT"}}}, {"name": "model_40/tf.math.add_94/Add/y", "op": "Const", "attr": {"value": {"tensor": {"dtype": "DT_FLOAT", "tensorShape": {"dim": [{"size": "256"}]}}}, "dtype": {"type": "DT_FLOAT"}}}, {"name": "model_40/tf.strided_slice_20/ones_like/tensor", "op": "Const", "attr": {"value": {"tensor": {"dtype": "DT_INT64", "tensorShape": {"dim": [{"size": "4"}]}}}, "dtype": {"type": "DT_INT64"}}}, {"name": "model_40/tf.strided_slice_20/StridedSlice/end", "op": "Const", "attr": {"value": {"tensor": {"dtype": "DT_INT64", "tensorShape": {"dim": [{"size": "4"}]}}}, "dtype": {"type": "DT_INT64"}}}, {"name": "model_40/tf.strided_slice_20/ones_like", "op": "Const", "attr": {"value": {"tensor": {"dtype": "DT_INT64", "tensorShape": {"dim": [{"size": "4"}]}}}, "dtype": {"type": "DT_INT64"}}}, {"name": "model_40/tf.compat.v1.nn.depthwise_conv2d_17/depthwise/filter_in", "op": "Const", "attr": {"value": {"tensor": {"dtype": "DT_FLOAT", "tensorShape": {"dim": [{"size": "3"}, {"size": "3"}, {"size": "128"}, {"size": "1"}]}}}, "dtype": {"type": "DT_FLOAT"}}}, {"name": "model_40/tf.math.add_106/Add/y", "op": "Const", "attr": {"value": {"tensor": {"dtype": "DT_FLOAT", "tensorShape": {"dim": [{"size": "128"}]}}}, "dtype": {"type": "DT_FLOAT"}}}, {"name": "model_40/tf.concat_28/concat/axis", "op": "Const", "attr": {"value": {"tensor": {"dtype": "DT_INT32", "tensorShape": {}}}, "dtype": {"type": "DT_INT32"}}}, {"name": "model_40/tf.nn.convolution_192/convolution/filter", "op": "Const", "attr": {"value": {"tensor": {"dtype": "DT_FLOAT", "tensorShape": {"dim": [{"size": "1"}, {"size": "1"}, {"size": "384"}, {"size": "256"}]}}}, "dtype": {"type": "DT_FLOAT"}}}, {"name": "model_40/tf.math.add_109/Add/y", "op": "Const", "attr": {"value": {"tensor": {"dtype": "DT_FLOAT", "tensorShape": {"dim": [{"size": "256"}]}}}, "dtype": {"type": "DT_FLOAT"}}}, {"name": "model_40/tf.math.reduce_mean/Mean/reduction_indices", "op": "Const", "attr": {"value": {"tensor": {"dtype": "DT_INT32", "tensorShape": {"dim": [{"size": "2"}]}}}, "dtype": {"type": "DT_INT32"}}}, {"name": "model_40/tf.compat.v1.transpose_115/transpose/perm", "op": "Const", "attr": {"value": {"tensor": {"dtype": "DT_INT32", "tensorShape": {"dim": [{"size": "4"}]}}}, "dtype": {"type": "DT_INT32"}}}, {"name": "model_40/tf.reshape_23/Reshape/shape", "op": "Const", "attr": {"value": {"tensor": {"dtype": "DT_INT32", "tensorShape": {"dim": [{"size": "3"}]}}}, "dtype": {"type": "DT_INT32"}}}, {"name": "model_40/tf.compat.v1.transpose_118/transpose/perm", "op": "Const", "attr": {"value": {"tensor": {"dtype": "DT_INT32", "tensorShape": {"dim": [{"size": "3"}]}}}, "dtype": {"type": "DT_INT32"}}}, {"name": "model_40/tf.compat.v1.nn.conv1d/conv1d/ExpandDims/dim", "op": "Const", "attr": {"value": {"tensor": {"dtype": "DT_INT32", "tensorShape": {}}}, "dtype": {"type": "DT_INT32"}}}, {"name": "model_40/tf.compat.v1.nn.conv1d/conv1d/ExpandDims_1", "op": "Const", "attr": {"value": {"tensor": {"dtype": "DT_FLOAT", "tensorShape": {"dim": [{"size": "1"}, {"size": "3"}, {"size": "1"}, {"size": "1"}]}}}, "dtype": {"type": "DT_FLOAT"}}}, {"name": "model_40/tf.compat.v1.transpose_121/transpose/perm", "op": "Const", "attr": {"value": {"tensor": {"dtype": "DT_INT32", "tensorShape": {"dim": [{"size": "3"}]}}}, "dtype": {"type": "DT_INT32"}}}, {"name": "model_40/tf.reshape_26/Reshape/shape", "op": "Const", "attr": {"value": {"tensor": {"dtype": "DT_INT32", "tensorShape": {"dim": [{"size": "4"}]}}}, "dtype": {"type": "DT_INT32"}}}, {"name": "model_40/tf.compat.v1.transpose_124/transpose/perm", "op": "Const", "attr": {"value": {"tensor": {"dtype": "DT_INT32", "tensorShape": {"dim": [{"size": "4"}]}}}, "dtype": {"type": "DT_INT32"}}}, {"name": "model_40/tf.nn.convolution_193/convolution/filter", "op": "Const", "attr": {"value": {"tensor": {"dtype": "DT_FLOAT", "tensorShape": {"dim": [{"size": "3"}, {"size": "3"}, {"size": "256"}, {"size": "51"}]}}}, "dtype": {"type": "DT_FLOAT"}}}, {"name": "model_40/tf.math.add_110/Add/y", "op": "Const", "attr": {"value": {"tensor": {"dtype": "DT_FLOAT", "tensorShape": {"dim": [{"size": "51"}]}}}, "dtype": {"type": "DT_FLOAT"}}}, {"name": "model_40/tf.nn.convolution_195/convolution/filter", "op": "Const", "attr": {"value": {"tensor": {"dtype": "DT_FLOAT", "tensorShape": {"dim": [{"size": "3"}, {"size": "3"}, {"size": "51"}, {"size": "51"}]}}}, "dtype": {"type": "DT_FLOAT"}}}, {"name": "model_40/tf.math.add_113/Add/y", "op": "Const", "attr": {"value": {"tensor": {"dtype": "DT_FLOAT", "tensorShape": {"dim": [{"size": "51"}]}}}, "dtype": {"type": "DT_FLOAT"}}}, {"name": "model_40/tf.nn.convolution_198/convolution/filter", "op": "Const", "attr": {"value": {"tensor": {"dtype": "DT_FLOAT", "tensorShape": {"dim": [{"size": "1"}, {"size": "1"}, {"size": "51"}, {"size": "51"}]}}}, "dtype": {"type": "DT_FLOAT"}}}, {"name": "model_40/tf.math.add_116/Add/y", "op": "Const", "attr": {"value": {"tensor": {"dtype": "DT_FLOAT", "tensorShape": {"dim": [{"size": "51"}]}}}, "dtype": {"type": "DT_FLOAT"}}}, {"name": "model_40/tf.compat.v1.transpose_134/transpose/perm", "op": "Const", "attr": {"value": {"tensor": {"dtype": "DT_INT32", "tensorShape": {"dim": [{"size": "4"}]}}}, "dtype": {"type": "DT_INT32"}}}, {"name": "model_40/tf.reshape_29/Reshape/shape", "op": "Const", "attr": {"value": {"tensor": {"dtype": "DT_INT32", "tensorShape": {"dim": [{"size": "3"}]}}}, "dtype": {"type": "DT_INT32"}}}, {"name": "model_40/tf.concat_29/concat/axis", "op": "Const", "attr": {"value": {"tensor": {"dtype": "DT_INT32", "tensorShape": {}}}, "dtype": {"type": "DT_INT32"}}}, {"name": "model_40/tf.reshape_32/Reshape/shape", "op": "Const", "attr": {"value": {"tensor": {"dtype": "DT_INT32", "tensorShape": {"dim": [{"size": "4"}]}}}, "dtype": {"type": "DT_INT32"}}}, {"name": "model_40/tf.strided_slice_22/StridedSlice/begin", "op": "Const", "attr": {"value": {"tensor": {"dtype": "DT_INT64", "tensorShape": {"dim": [{"size": "4"}]}}}, "dtype": {"type": "DT_INT64"}}}, {"name": "model_40/tf.strided_slice_22/StridedSlice/end", "op": "Const", "attr": {"value": {"tensor": {"dtype": "DT_INT64", "tensorShape": {"dim": [{"size": "4"}]}}}, "dtype": {"type": "DT_INT64"}}}, {"name": "model_40/tf.strided_slice_22/StridedSlice/strides", "op": "Const", "attr": {"value": {"tensor": {"dtype": "DT_INT64", "tensorShape": {"dim": [{"size": "4"}]}}}, "dtype": {"type": "DT_INT64"}}}, {"name": "model_40/tf.concat_31/concat/axis", "op": "Const", "attr": {"value": {"tensor": {"dtype": "DT_INT32", "tensorShape": {}}}, "dtype": {"type": "DT_INT32"}}}, {"name": "model_40/tf.reshape_38/Reshape/shape", "op": "Const", "attr": {"value": {"tensor": {"dtype": "DT_INT32", "tensorShape": {"dim": [{"size": "3"}]}}}, "dtype": {"type": "DT_INT32"}}}, {"name": "model_40/output0/concat/axis", "op": "Const", "attr": {"value": {"tensor": {"dtype": "DT_INT32", "tensorShape": {}}}, "dtype": {"type": "DT_INT32"}}}, {"name": "x", "op": "Placeholder", "attr": {"shape": {"shape": {"dim": [{"size": "1"}, {"size": "640"}, {"size": "640"}, {"size": "3"}]}}, "dtype": {"type": "DT_FLOAT"}}}, {"name": "model_40/tf.compat.v1.pad/Pad", "op": "Pad", "input": ["x", "model_40/tf.compat.v1.pad/Pad/paddings"], "attr": {"Tpaddings": {"type": "DT_INT32"}, "T": {"type": "DT_FLOAT"}}}, {"name": "model_40/tf.math.add/Add", "op": "_FusedConv2D", "input": ["model_40/tf.compat.v1.pad/Pad", "model_40/tf.nn.convolution/convolution/filter", "model_40/tf.math.add/Add/y"], "device": "/device:CPU:0", "attr": {"num_host_args": {"i": "0"}, "data_format": {"s": "TkhXQw=="}, "filter_format": {"s": "SFdJTw=="}, "strides": {"list": {"i": ["1", "2", "2", "1"]}}, "num_args": {"i": "1"}, "fused_ops": {"list": {"s": ["Qmlhc0FkZA=="]}}, "TArgs": {"list": {"type": ["DT_FLOAT"]}}, "padding": {"s": "VkFMSUQ="}, "use_cudnn_on_gpu": {"b": true}, "leakyrelu_alpha": {"f": 0.2}, "epsilon": {"f": 0.0}, "T": {"type": "DT_FLOAT"}, "explicit_paddings": {"list": {}}, "dilations": {"list": {"i": ["1", "1", "1", "1"]}}}}, {"name": "model_40/tf.math.sigmoid/Sigmoid", "op": "Sigmoid", "input": ["model_40/tf.math.add/Add"], "attr": {"T": {"type": "DT_FLOAT"}}}, {"name": "model_40/tf.math.multiply_3/Mul", "op": "Mul", "input": ["model_40/tf.math.add/Add", "model_40/tf.math.sigmoid/Sigmoid"], "attr": {"T": {"type": "DT_FLOAT"}}}, {"name": "model_40/tf.compat.v1.pad_1/Pad", "op": "Pad", "input": ["model_40/tf.math.multiply_3/Mul", "model_40/tf.compat.v1.pad_1/Pad/paddings"], "attr": {"Tpaddings": {"type": "DT_INT32"}, "T": {"type": "DT_FLOAT"}}}, {"name": "model_40/tf.math.add_1/Add", "op": "_FusedConv2D", "input": ["model_40/tf.compat.v1.pad_1/Pad", "model_40/tf.nn.convolution_1/convolution/filter", "model_40/tf.math.add_1/Add/y"], "device": "/device:CPU:0", "attr": {"num_host_args": {"i": "0"}, "data_format": {"s": "TkhXQw=="}, "filter_format": {"s": "SFdJTw=="}, "fused_ops": {"list": {"s": ["Qmlhc0FkZA=="]}}, "num_args": {"i": "1"}, "strides": {"list": {"i": ["1", "2", "2", "1"]}}, "TArgs": {"list": {"type": ["DT_FLOAT"]}}, "padding": {"s": "VkFMSUQ="}, "use_cudnn_on_gpu": {"b": true}, "leakyrelu_alpha": {"f": 0.2}, "epsilon": {"f": 0.0}, "T": {"type": "DT_FLOAT"}, "explicit_paddings": {"list": {}}, "dilations": {"list": {"i": ["1", "1", "1", "1"]}}}}, {"name": "model_40/tf.math.sigmoid_1/Sigmoid", "op": "Sigmoid", "input": ["model_40/tf.math.add_1/Add"], "attr": {"T": {"type": "DT_FLOAT"}}}, {"name": "model_40/tf.math.multiply_7/Mul", "op": "Mul", "input": ["model_40/tf.math.add_1/Add", "model_40/tf.math.sigmoid_1/Sigmoid"], "attr": {"T": {"type": "DT_FLOAT"}}}, {"name": "model_40/tf.math.add_2/Add", "op": "_FusedConv2D", "input": ["model_40/tf.math.multiply_7/Mul", "model_40/tf.nn.convolution_2/convolution/filter", "model_40/tf.math.add_2/Add/y"], "device": "/device:CPU:0", "attr": {"num_host_args": {"i": "0"}, "data_format": {"s": "TkhXQw=="}, "filter_format": {"s": "SFdJTw=="}, "fused_ops": {"list": {"s": ["Qmlhc0FkZA=="]}}, "num_args": {"i": "1"}, "strides": {"list": {"i": ["1", "1", "1", "1"]}}, "TArgs": {"list": {"type": ["DT_FLOAT"]}}, "padding": {"s": "U0FNRQ=="}, "use_cudnn_on_gpu": {"b": true}, "leakyrelu_alpha": {"f": 0.2}, "epsilon": {"f": 0.0}, "T": {"type": "DT_FLOAT"}, "explicit_paddings": {"list": {}}, "dilations": {"list": {"i": ["1", "1", "1", "1"]}}}}, {"name": "model_40/tf.math.sigmoid_2/Sigmoid", "op": "Sigmoid", "input": ["model_40/tf.math.add_2/Add"], "attr": {"T": {"type": "DT_FLOAT"}}}, {"name": "model_40/tf.math.multiply_11/Mul", "op": "Mul", "input": ["model_40/tf.math.add_2/Add", "model_40/tf.math.sigmoid_2/Sigmoid"], "attr": {"T": {"type": "DT_FLOAT"}}}, {"name": "model_40/tf.strided_slice/StridedSlice", "op": "StridedSlice", "input": ["model_40/tf.math.multiply_11/Mul", "model_40/tf.strided_slice/ones_like/tensor", "model_40/tf.strided_slice/StridedSlice/end", "model_40/tf.strided_slice/ones_like"], "attr": {"shrink_axis_mask": {"i": "0"}, "Index": {"type": "DT_INT64"}, "new_axis_mask": {"i": "0"}, "begin_mask": {"i": "15"}, "end_mask": {"i": "7"}, "T": {"type": "DT_FLOAT"}, "ellipsis_mask": {"i": "0"}}}, {"name": "model_40/tf.strided_slice_1/StridedSlice", "op": "StridedSlice", "input": ["model_40/tf.math.multiply_11/Mul", "model_40/tf.strided_slice_1/ones_like/tensor", "model_40/tf.strided_slice_1/StridedSlice/end", "model_40/tf.strided_slice_1/ones_like"], "attr": {"shrink_axis_mask": {"i": "0"}, "new_axis_mask": {"i": "0"}, "Index": {"type": "DT_INT64"}, "begin_mask": {"i": "7"}, "T": {"type": "DT_FLOAT"}, "end_mask": {"i": "7"}, "ellipsis_mask": {"i": "0"}}}, {"name": "model_40/tf.math.add_3/Add", "op": "_FusedConv2D", "input": ["model_40/tf.strided_slice_1/StridedSlice", "model_40/tf.nn.convolution_3/convolution/filter", "model_40/tf.math.add_3/Add/y"], "device": "/device:CPU:0", "attr": {"num_host_args": {"i": "0"}, "data_format": {"s": "TkhXQw=="}, "filter_format": {"s": "SFdJTw=="}, "fused_ops": {"list": {"s": ["Qmlhc0FkZA=="]}}, "num_args": {"i": "1"}, "strides": {"list": {"i": ["1", "1", "1", "1"]}}, "TArgs": {"list": {"type": ["DT_FLOAT"]}}, "padding": {"s": "U0FNRQ=="}, "use_cudnn_on_gpu": {"b": true}, "leakyrelu_alpha": {"f": 0.2}, "epsilon": {"f": 0.0}, "T": {"type": "DT_FLOAT"}, "explicit_paddings": {"list": {}}, "dilations": {"list": {"i": ["1", "1", "1", "1"]}}}}, {"name": "model_40/tf.math.sigmoid_3/Sigmoid", "op": "Sigmoid", "input": ["model_40/tf.math.add_3/Add"], "attr": {"T": {"type": "DT_FLOAT"}}}, {"name": "model_40/tf.math.multiply_15/Mul", "op": "Mul", "input": ["model_40/tf.math.add_3/Add", "model_40/tf.math.sigmoid_3/Sigmoid"], "attr": {"T": {"type": "DT_FLOAT"}}}, {"name": "model_40/tf.compat.v1.nn.depthwise_conv2d/depthwise", "op": "FusedDepthwiseConv2dNative", "input": ["model_40/tf.math.multiply_15/Mul", "model_40/tf.compat.v1.nn.depthwise_conv2d/depthwise/filter_in", "model_40/tf.math.add_4/Add/y"], "attr": {"padding": {"s": "U0FNRQ=="}, "data_format": {"s": "TkhXQw=="}, "strides": {"list": {"i": ["1", "1", "1", "1"]}}, "num_args": {"i": "1"}, "fused_ops": {"list": {"s": ["Qmlhc0FkZA=="]}}, "T": {"type": "DT_FLOAT"}, "explicit_paddings": {"list": {}}, "dilations": {"list": {"i": ["1", "1", "1", "1"]}}}}, {"name": "model_40/tf.math.sigmoid_4/Sigmoid", "op": "Sigmoid", "input": ["model_40/tf.compat.v1.nn.depthwise_conv2d/depthwise"], "attr": {"T": {"type": "DT_FLOAT"}}}, {"name": "model_40/tf.math.multiply_19/Mul", "op": "Mul", "input": ["model_40/tf.compat.v1.nn.depthwise_conv2d/depthwise", "model_40/tf.math.sigmoid_4/Sigmoid"], "attr": {"T": {"type": "DT_FLOAT"}}}, {"name": "model_40/tf.concat/concat", "op": "ConcatV2", "input": ["model_40/tf.math.multiply_15/Mul", "model_40/tf.math.multiply_19/Mul", "model_40/tf.concat/concat/axis"], "attr": {"N": {"i": "2"}, "T": {"type": "DT_FLOAT"}, "Tidx": {"type": "DT_INT32"}}}, {"name": "model_40/tf.math.add_5/Add", "op": "_FusedConv2D", "input": ["model_40/tf.concat/concat", "model_40/tf.nn.convolution_4/convolution/filter", "model_40/tf.math.add_5/Add/y"], "device": "/device:CPU:0", "attr": {"num_host_args": {"i": "0"}, "data_format": {"s": "TkhXQw=="}, "filter_format": {"s": "SFdJTw=="}, "fused_ops": {"list": {"s": ["Qmlhc0FkZA=="]}}, "num_args": {"i": "1"}, "strides": {"list": {"i": ["1", "1", "1", "1"]}}, "TArgs": {"list": {"type": ["DT_FLOAT"]}}, "padding": {"s": "U0FNRQ=="}, "use_cudnn_on_gpu": {"b": true}, "leakyrelu_alpha": {"f": 0.2}, "epsilon": {"f": 0.0}, "T": {"type": "DT_FLOAT"}, "explicit_paddings": {"list": {}}, "dilations": {"list": {"i": ["1", "1", "1", "1"]}}}}, {"name": "model_40/tf.compat.v1.nn.depthwise_conv2d_1/depthwise", "op": "FusedDepthwiseConv2dNative", "input": ["model_40/tf.math.add_5/Add", "model_40/tf.compat.v1.nn.depthwise_conv2d_1/depthwise/filter_in", "model_40/tf.math.add_6/Add/y"], "attr": {"padding": {"s": "U0FNRQ=="}, "data_format": {"s": "TkhXQw=="}, "strides": {"list": {"i": ["1", "1", "1", "1"]}}, "num_args": {"i": "1"}, "fused_ops": {"list": {"s": ["Qmlhc0FkZA=="]}}, "T": {"type": "DT_FLOAT"}, "explicit_paddings": {"list": {}}, "dilations": {"list": {"i": ["1", "1", "1", "1"]}}}}, {"name": "model_40/tf.concat_1/concat", "op": "ConcatV2", "input": ["model_40/tf.math.add_5/Add", "model_40/tf.compat.v1.nn.depthwise_conv2d_1/depthwise", "model_40/tf.concat_1/concat/axis"], "attr": {"N": {"i": "2"}, "Tidx": {"type": "DT_INT32"}, "T": {"type": "DT_FLOAT"}}}, {"name": "model_40/tf.math.add_8/Add", "op": "AddV2", "input": ["model_40/tf.concat_1/concat", "model_40/tf.strided_slice_1/StridedSlice"], "attr": {"T": {"type": "DT_FLOAT"}}}, {"name": "model_40/tf.concat_2/concat", "op": "ConcatV2", "input": ["model_40/tf.strided_slice/StridedSlice", "model_40/tf.strided_slice_1/StridedSlice", "model_40/tf.math.add_8/Add", "model_40/tf.concat_2/concat/axis"], "attr": {"N": {"i": "3"}, "T": {"type": "DT_FLOAT"}, "Tidx": {"type": "DT_INT32"}}}, {"name": "model_40/tf.math.add_9/Add", "op": "_FusedConv2D", "input": ["model_40/tf.concat_2/concat", "model_40/tf.nn.convolution_5/convolution/filter", "model_40/tf.math.add_9/Add/y"], "device": "/device:CPU:0", "attr": {"num_host_args": {"i": "0"}, "data_format": {"s": "TkhXQw=="}, "filter_format": {"s": "SFdJTw=="}, "fused_ops": {"list": {"s": ["Qmlhc0FkZA=="]}}, "num_args": {"i": "1"}, "strides": {"list": {"i": ["1", "1", "1", "1"]}}, "TArgs": {"list": {"type": ["DT_FLOAT"]}}, "padding": {"s": "U0FNRQ=="}, "use_cudnn_on_gpu": {"b": true}, "leakyrelu_alpha": {"f": 0.2}, "epsilon": {"f": 0.0}, "T": {"type": "DT_FLOAT"}, "explicit_paddings": {"list": {}}, "dilations": {"list": {"i": ["1", "1", "1", "1"]}}}}, {"name": "model_40/tf.math.sigmoid_5/Sigmoid", "op": "Sigmoid", "input": ["model_40/tf.math.add_9/Add"], "attr": {"T": {"type": "DT_FLOAT"}}}, {"name": "model_40/tf.math.multiply_25/Mul", "op": "Mul", "input": ["model_40/tf.math.add_9/Add", "model_40/tf.math.sigmoid_5/Sigmoid"], "attr": {"T": {"type": "DT_FLOAT"}}}, {"name": "model_40/tf.compat.v1.pad_2/Pad", "op": "Pad", "input": ["model_40/tf.math.multiply_25/Mul", "model_40/tf.compat.v1.pad_2/Pad/paddings"], "attr": {"Tpaddings": {"type": "DT_INT32"}, "T": {"type": "DT_FLOAT"}}}, {"name": "model_40/tf.math.add_10/Add", "op": "_FusedConv2D", "input": ["model_40/tf.compat.v1.pad_2/Pad", "model_40/tf.nn.convolution_6/convolution/filter", "model_40/tf.math.add_10/Add/y"], "device": "/device:CPU:0", "attr": {"num_host_args": {"i": "0"}, "data_format": {"s": "TkhXQw=="}, "filter_format": {"s": "SFdJTw=="}, "strides": {"list": {"i": ["1", "2", "2", "1"]}}, "num_args": {"i": "1"}, "fused_ops": {"list": {"s": ["Qmlhc0FkZA=="]}}, "TArgs": {"list": {"type": ["DT_FLOAT"]}}, "padding": {"s": "VkFMSUQ="}, "use_cudnn_on_gpu": {"b": true}, "leakyrelu_alpha": {"f": 0.2}, "epsilon": {"f": 0.0}, "T": {"type": "DT_FLOAT"}, "explicit_paddings": {"list": {}}, "dilations": {"list": {"i": ["1", "1", "1", "1"]}}}}, {"name": "model_40/tf.math.sigmoid_6/Sigmoid", "op": "Sigmoid", "input": ["model_40/tf.math.add_10/Add"], "attr": {"T": {"type": "DT_FLOAT"}}}, {"name": "model_40/tf.math.multiply_29/Mul", "op": "Mul", "input": ["model_40/tf.math.add_10/Add", "model_40/tf.math.sigmoid_6/Sigmoid"], "attr": {"T": {"type": "DT_FLOAT"}}}, {"name": "model_40/tf.math.add_11/Add", "op": "_FusedConv2D", "input": ["model_40/tf.math.multiply_29/Mul", "model_40/tf.nn.convolution_7/convolution/filter", "model_40/tf.math.add_11/Add/y"], "device": "/device:CPU:0", "attr": {"num_host_args": {"i": "0"}, "data_format": {"s": "TkhXQw=="}, "filter_format": {"s": "SFdJTw=="}, "fused_ops": {"list": {"s": ["Qmlhc0FkZA=="]}}, "num_args": {"i": "1"}, "strides": {"list": {"i": ["1", "1", "1", "1"]}}, "TArgs": {"list": {"type": ["DT_FLOAT"]}}, "padding": {"s": "U0FNRQ=="}, "use_cudnn_on_gpu": {"b": true}, "leakyrelu_alpha": {"f": 0.2}, "epsilon": {"f": 0.0}, "T": {"type": "DT_FLOAT"}, "explicit_paddings": {"list": {}}, "dilations": {"list": {"i": ["1", "1", "1", "1"]}}}}, {"name": "model_40/tf.math.sigmoid_7/Sigmoid", "op": "Sigmoid", "input": ["model_40/tf.math.add_11/Add"], "attr": {"T": {"type": "DT_FLOAT"}}}, {"name": "model_40/tf.math.multiply_33/Mul", "op": "Mul", "input": ["model_40/tf.math.add_11/Add", "model_40/tf.math.sigmoid_7/Sigmoid"], "attr": {"T": {"type": "DT_FLOAT"}}}, {"name": "model_40/tf.strided_slice_2/StridedSlice", "op": "StridedSlice", "input": ["model_40/tf.math.multiply_33/Mul", "model_40/tf.strided_slice_2/ones_like/tensor", "model_40/tf.strided_slice_2/StridedSlice/end", "model_40/tf.strided_slice_2/ones_like"], "attr": {"shrink_axis_mask": {"i": "0"}, "Index": {"type": "DT_INT64"}, "new_axis_mask": {"i": "0"}, "begin_mask": {"i": "15"}, "T": {"type": "DT_FLOAT"}, "end_mask": {"i": "7"}, "ellipsis_mask": {"i": "0"}}}, {"name": "model_40/tf.strided_slice_3/StridedSlice", "op": "StridedSlice", "input": ["model_40/tf.math.multiply_33/Mul", "model_40/tf.strided_slice_3/ones_like/tensor", "model_40/tf.strided_slice_3/StridedSlice/end", "model_40/tf.strided_slice_3/ones_like"], "attr": {"shrink_axis_mask": {"i": "0"}, "Index": {"type": "DT_INT64"}, "new_axis_mask": {"i": "0"}, "begin_mask": {"i": "7"}, "end_mask": {"i": "7"}, "T": {"type": "DT_FLOAT"}, "ellipsis_mask": {"i": "0"}}}, {"name": "model_40/tf.math.add_12/Add", "op": "_FusedConv2D", "input": ["model_40/tf.strided_slice_3/StridedSlice", "model_40/tf.nn.convolution_8/convolution/filter", "model_40/tf.math.add_12/Add/y"], "device": "/device:CPU:0", "attr": {"num_host_args": {"i": "0"}, "data_format": {"s": "TkhXQw=="}, "filter_format": {"s": "SFdJTw=="}, "strides": {"list": {"i": ["1", "1", "1", "1"]}}, "num_args": {"i": "1"}, "fused_ops": {"list": {"s": ["Qmlhc0FkZA=="]}}, "TArgs": {"list": {"type": ["DT_FLOAT"]}}, "padding": {"s": "U0FNRQ=="}, "use_cudnn_on_gpu": {"b": true}, "leakyrelu_alpha": {"f": 0.2}, "epsilon": {"f": 0.0}, "T": {"type": "DT_FLOAT"}, "explicit_paddings": {"list": {}}, "dilations": {"list": {"i": ["1", "1", "1", "1"]}}}}, {"name": "model_40/tf.math.sigmoid_8/Sigmoid", "op": "Sigmoid", "input": ["model_40/tf.math.add_12/Add"], "attr": {"T": {"type": "DT_FLOAT"}}}, {"name": "model_40/tf.math.multiply_37/Mul", "op": "Mul", "input": ["model_40/tf.math.add_12/Add", "model_40/tf.math.sigmoid_8/Sigmoid"], "attr": {"T": {"type": "DT_FLOAT"}}}, {"name": "model_40/tf.compat.v1.nn.depthwise_conv2d_2/depthwise", "op": "FusedDepthwiseConv2dNative", "input": ["model_40/tf.math.multiply_37/Mul", "model_40/tf.compat.v1.nn.depthwise_conv2d_2/depthwise/filter_in", "model_40/tf.math.add_13/Add/y"], "attr": {"padding": {"s": "U0FNRQ=="}, "data_format": {"s": "TkhXQw=="}, "strides": {"list": {"i": ["1", "1", "1", "1"]}}, "num_args": {"i": "1"}, "fused_ops": {"list": {"s": ["Qmlhc0FkZA=="]}}, "T": {"type": "DT_FLOAT"}, "explicit_paddings": {"list": {}}, "dilations": {"list": {"i": ["1", "1", "1", "1"]}}}}, {"name": "model_40/tf.math.sigmoid_9/Sigmoid", "op": "Sigmoid", "input": ["model_40/tf.compat.v1.nn.depthwise_conv2d_2/depthwise"], "attr": {"T": {"type": "DT_FLOAT"}}}, {"name": "model_40/tf.math.multiply_41/Mul", "op": "Mul", "input": ["model_40/tf.compat.v1.nn.depthwise_conv2d_2/depthwise", "model_40/tf.math.sigmoid_9/Sigmoid"], "attr": {"T": {"type": "DT_FLOAT"}}}, {"name": "model_40/tf.concat_3/concat", "op": "ConcatV2", "input": ["model_40/tf.math.multiply_37/Mul", "model_40/tf.math.multiply_41/Mul", "model_40/tf.concat_3/concat/axis"], "attr": {"N": {"i": "2"}, "Tidx": {"type": "DT_INT32"}, "T": {"type": "DT_FLOAT"}}}, {"name": "model_40/tf.math.add_14/Add", "op": "_FusedConv2D", "input": ["model_40/tf.concat_3/concat", "model_40/tf.nn.convolution_9/convolution/filter", "model_40/tf.math.add_14/Add/y"], "device": "/device:CPU:0", "attr": {"num_host_args": {"i": "0"}, "data_format": {"s": "TkhXQw=="}, "filter_format": {"s": "SFdJTw=="}, "fused_ops": {"list": {"s": ["Qmlhc0FkZA=="]}}, "num_args": {"i": "1"}, "strides": {"list": {"i": ["1", "1", "1", "1"]}}, "TArgs": {"list": {"type": ["DT_FLOAT"]}}, "padding": {"s": "U0FNRQ=="}, "use_cudnn_on_gpu": {"b": true}, "leakyrelu_alpha": {"f": 0.2}, "epsilon": {"f": 0.0}, "T": {"type": "DT_FLOAT"}, "explicit_paddings": {"list": {}}, "dilations": {"list": {"i": ["1", "1", "1", "1"]}}}}, {"name": "model_40/tf.compat.v1.nn.depthwise_conv2d_3/depthwise", "op": "FusedDepthwiseConv2dNative", "input": ["model_40/tf.math.add_14/Add", "model_40/tf.compat.v1.nn.depthwise_conv2d_3/depthwise/filter_in", "model_40/tf.math.add_15/Add/y"], "attr": {"padding": {"s": "U0FNRQ=="}, "data_format": {"s": "TkhXQw=="}, "strides": {"list": {"i": ["1", "1", "1", "1"]}}, "num_args": {"i": "1"}, "fused_ops": {"list": {"s": ["Qmlhc0FkZA=="]}}, "T": {"type": "DT_FLOAT"}, "explicit_paddings": {"list": {}}, "dilations": {"list": {"i": ["1", "1", "1", "1"]}}}}, {"name": "model_40/tf.concat_4/concat", "op": "ConcatV2", "input": ["model_40/tf.math.add_14/Add", "model_40/tf.compat.v1.nn.depthwise_conv2d_3/depthwise", "model_40/tf.concat_4/concat/axis"], "attr": {"N": {"i": "2"}, "T": {"type": "DT_FLOAT"}, "Tidx": {"type": "DT_INT32"}}}, {"name": "model_40/tf.math.add_17/Add", "op": "AddV2", "input": ["model_40/tf.concat_4/concat", "model_40/tf.strided_slice_3/StridedSlice"], "attr": {"T": {"type": "DT_FLOAT"}}}, {"name": "model_40/tf.concat_5/concat", "op": "ConcatV2", "input": ["model_40/tf.strided_slice_2/StridedSlice", "model_40/tf.strided_slice_3/StridedSlice", "model_40/tf.math.add_17/Add", "model_40/tf.concat_5/concat/axis"], "attr": {"N": {"i": "3"}, "T": {"type": "DT_FLOAT"}, "Tidx": {"type": "DT_INT32"}}}, {"name": "model_40/tf.math.add_18/Add", "op": "_FusedConv2D", "input": ["model_40/tf.concat_5/concat", "model_40/tf.nn.convolution_10/convolution/filter", "model_40/tf.math.add_18/Add/y"], "device": "/device:CPU:0", "attr": {"num_host_args": {"i": "0"}, "data_format": {"s": "TkhXQw=="}, "filter_format": {"s": "SFdJTw=="}, "strides": {"list": {"i": ["1", "1", "1", "1"]}}, "num_args": {"i": "1"}, "fused_ops": {"list": {"s": ["Qmlhc0FkZA=="]}}, "TArgs": {"list": {"type": ["DT_FLOAT"]}}, "padding": {"s": "U0FNRQ=="}, "use_cudnn_on_gpu": {"b": true}, "leakyrelu_alpha": {"f": 0.2}, "epsilon": {"f": 0.0}, "T": {"type": "DT_FLOAT"}, "explicit_paddings": {"list": {}}, "dilations": {"list": {"i": ["1", "1", "1", "1"]}}}}, {"name": "model_40/tf.math.sigmoid_10/Sigmoid", "op": "Sigmoid", "input": ["model_40/tf.math.add_18/Add"], "attr": {"T": {"type": "DT_FLOAT"}}}, {"name": "model_40/tf.math.multiply_47/Mul", "op": "Mul", "input": ["model_40/tf.math.add_18/Add", "model_40/tf.math.sigmoid_10/Sigmoid"], "attr": {"T": {"type": "DT_FLOAT"}}}, {"name": "model_40/tf.compat.v1.pad_3/Pad", "op": "Pad", "input": ["model_40/tf.math.multiply_47/Mul", "model_40/tf.compat.v1.pad_3/Pad/paddings"], "attr": {"Tpaddings": {"type": "DT_INT32"}, "T": {"type": "DT_FLOAT"}}}, {"name": "model_40/tf.math.add_19/Add", "op": "_FusedConv2D", "input": ["model_40/tf.compat.v1.pad_3/Pad", "model_40/tf.nn.convolution_11/convolution/filter", "model_40/tf.math.add_19/Add/y"], "device": "/device:CPU:0", "attr": {"num_host_args": {"i": "0"}, "data_format": {"s": "TkhXQw=="}, "filter_format": {"s": "SFdJTw=="}, "strides": {"list": {"i": ["1", "2", "2", "1"]}}, "num_args": {"i": "1"}, "fused_ops": {"list": {"s": ["Qmlhc0FkZA=="]}}, "TArgs": {"list": {"type": ["DT_FLOAT"]}}, "padding": {"s": "VkFMSUQ="}, "use_cudnn_on_gpu": {"b": true}, "leakyrelu_alpha": {"f": 0.2}, "epsilon": {"f": 0.0}, "T": {"type": "DT_FLOAT"}, "explicit_paddings": {"list": {}}, "dilations": {"list": {"i": ["1", "1", "1", "1"]}}}}, {"name": "model_40/tf.math.sigmoid_11/Sigmoid", "op": "Sigmoid", "input": ["model_40/tf.math.add_19/Add"], "attr": {"T": {"type": "DT_FLOAT"}}}, {"name": "model_40/tf.math.multiply_51/Mul", "op": "Mul", "input": ["model_40/tf.math.add_19/Add", "model_40/tf.math.sigmoid_11/Sigmoid"], "attr": {"T": {"type": "DT_FLOAT"}}}, {"name": "model_40/tf.math.add_20/Add", "op": "_FusedConv2D", "input": ["model_40/tf.math.multiply_51/Mul", "model_40/tf.nn.convolution_12/convolution/filter", "model_40/tf.math.add_20/Add/y"], "device": "/device:CPU:0", "attr": {"num_host_args": {"i": "0"}, "data_format": {"s": "TkhXQw=="}, "filter_format": {"s": "SFdJTw=="}, "strides": {"list": {"i": ["1", "1", "1", "1"]}}, "num_args": {"i": "1"}, "fused_ops": {"list": {"s": ["Qmlhc0FkZA=="]}}, "TArgs": {"list": {"type": ["DT_FLOAT"]}}, "padding": {"s": "U0FNRQ=="}, "use_cudnn_on_gpu": {"b": true}, "leakyrelu_alpha": {"f": 0.2}, "epsilon": {"f": 0.0}, "T": {"type": "DT_FLOAT"}, "explicit_paddings": {"list": {}}, "dilations": {"list": {"i": ["1", "1", "1", "1"]}}}}, {"name": "model_40/tf.math.sigmoid_12/Sigmoid", "op": "Sigmoid", "input": ["model_40/tf.math.add_20/Add"], "attr": {"T": {"type": "DT_FLOAT"}}}, {"name": "model_40/tf.math.multiply_55/Mul", "op": "Mul", "input": ["model_40/tf.math.add_20/Add", "model_40/tf.math.sigmoid_12/Sigmoid"], "attr": {"T": {"type": "DT_FLOAT"}}}, {"name": "model_40/tf.strided_slice_4/StridedSlice", "op": "StridedSlice", "input": ["model_40/tf.math.multiply_55/Mul", "model_40/tf.strided_slice_4/ones_like/tensor", "model_40/tf.strided_slice_4/StridedSlice/end", "model_40/tf.strided_slice_4/ones_like"], "attr": {"shrink_axis_mask": {"i": "0"}, "Index": {"type": "DT_INT64"}, "new_axis_mask": {"i": "0"}, "begin_mask": {"i": "15"}, "T": {"type": "DT_FLOAT"}, "end_mask": {"i": "7"}, "ellipsis_mask": {"i": "0"}}}, {"name": "model_40/tf.strided_slice_5/StridedSlice", "op": "StridedSlice", "input": ["model_40/tf.math.multiply_55/Mul", "model_40/tf.strided_slice_5/ones_like/tensor", "model_40/tf.strided_slice_5/StridedSlice/end", "model_40/tf.strided_slice_5/ones_like"], "attr": {"shrink_axis_mask": {"i": "0"}, "Index": {"type": "DT_INT64"}, "new_axis_mask": {"i": "0"}, "begin_mask": {"i": "7"}, "end_mask": {"i": "7"}, "T": {"type": "DT_FLOAT"}, "ellipsis_mask": {"i": "0"}}}, {"name": "model_40/tf.math.add_21/Add", "op": "_FusedConv2D", "input": ["model_40/tf.strided_slice_5/StridedSlice", "model_40/tf.nn.convolution_13/convolution/filter", "model_40/tf.math.add_21/Add/y"], "device": "/device:CPU:0", "attr": {"num_host_args": {"i": "0"}, "data_format": {"s": "TkhXQw=="}, "filter_format": {"s": "SFdJTw=="}, "strides": {"list": {"i": ["1", "1", "1", "1"]}}, "num_args": {"i": "1"}, "fused_ops": {"list": {"s": ["Qmlhc0FkZA=="]}}, "TArgs": {"list": {"type": ["DT_FLOAT"]}}, "padding": {"s": "U0FNRQ=="}, "use_cudnn_on_gpu": {"b": true}, "leakyrelu_alpha": {"f": 0.2}, "epsilon": {"f": 0.0}, "T": {"type": "DT_FLOAT"}, "explicit_paddings": {"list": {}}, "dilations": {"list": {"i": ["1", "1", "1", "1"]}}}}, {"name": "model_40/tf.math.sigmoid_13/Sigmoid", "op": "Sigmoid", "input": ["model_40/tf.math.add_21/Add"], "attr": {"T": {"type": "DT_FLOAT"}}}, {"name": "model_40/tf.math.multiply_59/Mul", "op": "Mul", "input": ["model_40/tf.math.add_21/Add", "model_40/tf.math.sigmoid_13/Sigmoid"], "attr": {"T": {"type": "DT_FLOAT"}}}, {"name": "model_40/tf.compat.v1.nn.depthwise_conv2d_4/depthwise", "op": "FusedDepthwiseConv2dNative", "input": ["model_40/tf.math.multiply_59/Mul", "model_40/tf.compat.v1.nn.depthwise_conv2d_4/depthwise/filter_in", "model_40/tf.math.add_22/Add/y"], "attr": {"padding": {"s": "U0FNRQ=="}, "data_format": {"s": "TkhXQw=="}, "strides": {"list": {"i": ["1", "1", "1", "1"]}}, "num_args": {"i": "1"}, "fused_ops": {"list": {"s": ["Qmlhc0FkZA=="]}}, "T": {"type": "DT_FLOAT"}, "explicit_paddings": {"list": {}}, "dilations": {"list": {"i": ["1", "1", "1", "1"]}}}}, {"name": "model_40/tf.math.sigmoid_14/Sigmoid", "op": "Sigmoid", "input": ["model_40/tf.compat.v1.nn.depthwise_conv2d_4/depthwise"], "attr": {"T": {"type": "DT_FLOAT"}}}, {"name": "model_40/tf.math.multiply_63/Mul", "op": "Mul", "input": ["model_40/tf.compat.v1.nn.depthwise_conv2d_4/depthwise", "model_40/tf.math.sigmoid_14/Sigmoid"], "attr": {"T": {"type": "DT_FLOAT"}}}, {"name": "model_40/tf.concat_6/concat", "op": "ConcatV2", "input": ["model_40/tf.math.multiply_59/Mul", "model_40/tf.math.multiply_63/Mul", "model_40/tf.concat_6/concat/axis"], "attr": {"N": {"i": "2"}, "T": {"type": "DT_FLOAT"}, "Tidx": {"type": "DT_INT32"}}}, {"name": "model_40/tf.math.add_23/Add", "op": "_FusedConv2D", "input": ["model_40/tf.concat_6/concat", "model_40/tf.nn.convolution_14/convolution/filter", "model_40/tf.math.add_23/Add/y"], "device": "/device:CPU:0", "attr": {"num_host_args": {"i": "0"}, "data_format": {"s": "TkhXQw=="}, "filter_format": {"s": "SFdJTw=="}, "strides": {"list": {"i": ["1", "1", "1", "1"]}}, "num_args": {"i": "1"}, "fused_ops": {"list": {"s": ["Qmlhc0FkZA=="]}}, "TArgs": {"list": {"type": ["DT_FLOAT"]}}, "padding": {"s": "U0FNRQ=="}, "use_cudnn_on_gpu": {"b": true}, "leakyrelu_alpha": {"f": 0.2}, "epsilon": {"f": 0.0}, "T": {"type": "DT_FLOAT"}, "explicit_paddings": {"list": {}}, "dilations": {"list": {"i": ["1", "1", "1", "1"]}}}}, {"name": "model_40/tf.compat.v1.nn.depthwise_conv2d_5/depthwise", "op": "FusedDepthwiseConv2dNative", "input": ["model_40/tf.math.add_23/Add", "model_40/tf.compat.v1.nn.depthwise_conv2d_5/depthwise/filter_in", "model_40/tf.math.add_24/Add/y"], "attr": {"padding": {"s": "U0FNRQ=="}, "data_format": {"s": "TkhXQw=="}, "strides": {"list": {"i": ["1", "1", "1", "1"]}}, "num_args": {"i": "1"}, "fused_ops": {"list": {"s": ["Qmlhc0FkZA=="]}}, "T": {"type": "DT_FLOAT"}, "explicit_paddings": {"list": {}}, "dilations": {"list": {"i": ["1", "1", "1", "1"]}}}}, {"name": "model_40/tf.concat_7/concat", "op": "ConcatV2", "input": ["model_40/tf.math.add_23/Add", "model_40/tf.compat.v1.nn.depthwise_conv2d_5/depthwise", "model_40/tf.concat_7/concat/axis"], "attr": {"N": {"i": "2"}, "Tidx": {"type": "DT_INT32"}, "T": {"type": "DT_FLOAT"}}}, {"name": "model_40/tf.math.add_26/Add", "op": "AddV2", "input": ["model_40/tf.concat_7/concat", "model_40/tf.strided_slice_5/StridedSlice"], "attr": {"T": {"type": "DT_FLOAT"}}}, {"name": "model_40/tf.concat_8/concat", "op": "ConcatV2", "input": ["model_40/tf.strided_slice_4/StridedSlice", "model_40/tf.strided_slice_5/StridedSlice", "model_40/tf.math.add_26/Add", "model_40/tf.concat_8/concat/axis"], "attr": {"N": {"i": "3"}, "T": {"type": "DT_FLOAT"}, "Tidx": {"type": "DT_INT32"}}}, {"name": "model_40/tf.math.add_27/Add", "op": "_FusedConv2D", "input": ["model_40/tf.concat_8/concat", "model_40/tf.nn.convolution_15/convolution/filter", "model_40/tf.math.add_27/Add/y"], "device": "/device:CPU:0", "attr": {"num_host_args": {"i": "0"}, "data_format": {"s": "TkhXQw=="}, "filter_format": {"s": "SFdJTw=="}, "strides": {"list": {"i": ["1", "1", "1", "1"]}}, "num_args": {"i": "1"}, "fused_ops": {"list": {"s": ["Qmlhc0FkZA=="]}}, "TArgs": {"list": {"type": ["DT_FLOAT"]}}, "padding": {"s": "U0FNRQ=="}, "use_cudnn_on_gpu": {"b": true}, "leakyrelu_alpha": {"f": 0.2}, "epsilon": {"f": 0.0}, "T": {"type": "DT_FLOAT"}, "explicit_paddings": {"list": {}}, "dilations": {"list": {"i": ["1", "1", "1", "1"]}}}}, {"name": "model_40/tf.math.sigmoid_15/Sigmoid", "op": "Sigmoid", "input": ["model_40/tf.math.add_27/Add"], "attr": {"T": {"type": "DT_FLOAT"}}}, {"name": "model_40/tf.math.multiply_69/Mul", "op": "Mul", "input": ["model_40/tf.math.add_27/Add", "model_40/tf.math.sigmoid_15/Sigmoid"], "attr": {"T": {"type": "DT_FLOAT"}}}, {"name": "model_40/tf.compat.v1.pad_4/Pad", "op": "Pad", "input": ["model_40/tf.math.multiply_69/Mul", "model_40/tf.compat.v1.pad_4/Pad/paddings"], "attr": {"Tpaddings": {"type": "DT_INT32"}, "T": {"type": "DT_FLOAT"}}}, {"name": "model_40/tf.math.add_28/Add", "op": "_FusedConv2D", "input": ["model_40/tf.compat.v1.pad_4/Pad", "model_40/tf.nn.convolution_16/convolution/filter", "model_40/tf.math.add_28/Add/y"], "device": "/device:CPU:0", "attr": {"num_host_args": {"i": "0"}, "data_format": {"s": "TkhXQw=="}, "filter_format": {"s": "SFdJTw=="}, "strides": {"list": {"i": ["1", "2", "2", "1"]}}, "num_args": {"i": "1"}, "fused_ops": {"list": {"s": ["Qmlhc0FkZA=="]}}, "TArgs": {"list": {"type": ["DT_FLOAT"]}}, "padding": {"s": "VkFMSUQ="}, "use_cudnn_on_gpu": {"b": true}, "leakyrelu_alpha": {"f": 0.2}, "epsilon": {"f": 0.0}, "T": {"type": "DT_FLOAT"}, "explicit_paddings": {"list": {}}, "dilations": {"list": {"i": ["1", "1", "1", "1"]}}}}, {"name": "model_40/tf.math.sigmoid_16/Sigmoid", "op": "Sigmoid", "input": ["model_40/tf.math.add_28/Add"], "attr": {"T": {"type": "DT_FLOAT"}}}, {"name": "model_40/tf.math.multiply_73/Mul", "op": "Mul", "input": ["model_40/tf.math.add_28/Add", "model_40/tf.math.sigmoid_16/Sigmoid"], "attr": {"T": {"type": "DT_FLOAT"}}}, {"name": "model_40/tf.math.add_29/Add", "op": "_FusedConv2D", "input": ["model_40/tf.math.multiply_73/Mul", "model_40/tf.nn.convolution_17/convolution/filter", "model_40/tf.math.add_29/Add/y"], "device": "/device:CPU:0", "attr": {"num_host_args": {"i": "0"}, "data_format": {"s": "TkhXQw=="}, "filter_format": {"s": "SFdJTw=="}, "strides": {"list": {"i": ["1", "1", "1", "1"]}}, "num_args": {"i": "1"}, "fused_ops": {"list": {"s": ["Qmlhc0FkZA=="]}}, "TArgs": {"list": {"type": ["DT_FLOAT"]}}, "padding": {"s": "U0FNRQ=="}, "use_cudnn_on_gpu": {"b": true}, "leakyrelu_alpha": {"f": 0.2}, "epsilon": {"f": 0.0}, "T": {"type": "DT_FLOAT"}, "explicit_paddings": {"list": {}}, "dilations": {"list": {"i": ["1", "1", "1", "1"]}}}}, {"name": "model_40/tf.math.sigmoid_17/Sigmoid", "op": "Sigmoid", "input": ["model_40/tf.math.add_29/Add"], "attr": {"T": {"type": "DT_FLOAT"}}}, {"name": "model_40/tf.math.multiply_77/Mul", "op": "Mul", "input": ["model_40/tf.math.add_29/Add", "model_40/tf.math.sigmoid_17/Sigmoid"], "attr": {"T": {"type": "DT_FLOAT"}}}, {"name": "model_40/tf.strided_slice_6/StridedSlice", "op": "StridedSlice", "input": ["model_40/tf.math.multiply_77/Mul", "model_40/tf.strided_slice_6/ones_like/tensor", "model_40/tf.strided_slice_6/StridedSlice/end", "model_40/tf.strided_slice_6/ones_like"], "attr": {"shrink_axis_mask": {"i": "0"}, "Index": {"type": "DT_INT64"}, "new_axis_mask": {"i": "0"}, "begin_mask": {"i": "15"}, "T": {"type": "DT_FLOAT"}, "end_mask": {"i": "7"}, "ellipsis_mask": {"i": "0"}}}, {"name": "model_40/tf.strided_slice_7/StridedSlice", "op": "StridedSlice", "input": ["model_40/tf.math.multiply_77/Mul", "model_40/tf.strided_slice_7/ones_like/tensor", "model_40/tf.strided_slice_7/StridedSlice/end", "model_40/tf.strided_slice_7/ones_like"], "attr": {"shrink_axis_mask": {"i": "0"}, "Index": {"type": "DT_INT64"}, "new_axis_mask": {"i": "0"}, "begin_mask": {"i": "7"}, "end_mask": {"i": "7"}, "T": {"type": "DT_FLOAT"}, "ellipsis_mask": {"i": "0"}}}, {"name": "model_40/tf.math.add_30/Add", "op": "_FusedConv2D", "input": ["model_40/tf.strided_slice_7/StridedSlice", "model_40/tf.nn.convolution_18/convolution/filter", "model_40/tf.math.add_30/Add/y"], "device": "/device:CPU:0", "attr": {"num_host_args": {"i": "0"}, "data_format": {"s": "TkhXQw=="}, "filter_format": {"s": "SFdJTw=="}, "strides": {"list": {"i": ["1", "1", "1", "1"]}}, "num_args": {"i": "1"}, "fused_ops": {"list": {"s": ["Qmlhc0FkZA=="]}}, "TArgs": {"list": {"type": ["DT_FLOAT"]}}, "padding": {"s": "U0FNRQ=="}, "use_cudnn_on_gpu": {"b": true}, "leakyrelu_alpha": {"f": 0.2}, "epsilon": {"f": 0.0}, "T": {"type": "DT_FLOAT"}, "explicit_paddings": {"list": {}}, "dilations": {"list": {"i": ["1", "1", "1", "1"]}}}}, {"name": "model_40/tf.math.sigmoid_18/Sigmoid", "op": "Sigmoid", "input": ["model_40/tf.math.add_30/Add"], "attr": {"T": {"type": "DT_FLOAT"}}}, {"name": "model_40/tf.math.multiply_81/Mul", "op": "Mul", "input": ["model_40/tf.math.add_30/Add", "model_40/tf.math.sigmoid_18/Sigmoid"], "attr": {"T": {"type": "DT_FLOAT"}}}, {"name": "model_40/tf.compat.v1.nn.depthwise_conv2d_6/depthwise", "op": "FusedDepthwiseConv2dNative", "input": ["model_40/tf.math.multiply_81/Mul", "model_40/tf.compat.v1.nn.depthwise_conv2d_6/depthwise/filter_in", "model_40/tf.math.add_31/Add/y"], "attr": {"padding": {"s": "U0FNRQ=="}, "data_format": {"s": "TkhXQw=="}, "strides": {"list": {"i": ["1", "1", "1", "1"]}}, "num_args": {"i": "1"}, "fused_ops": {"list": {"s": ["Qmlhc0FkZA=="]}}, "T": {"type": "DT_FLOAT"}, "explicit_paddings": {"list": {}}, "dilations": {"list": {"i": ["1", "1", "1", "1"]}}}}, {"name": "model_40/tf.math.sigmoid_19/Sigmoid", "op": "Sigmoid", "input": ["model_40/tf.compat.v1.nn.depthwise_conv2d_6/depthwise"], "attr": {"T": {"type": "DT_FLOAT"}}}, {"name": "model_40/tf.math.multiply_85/Mul", "op": "Mul", "input": ["model_40/tf.compat.v1.nn.depthwise_conv2d_6/depthwise", "model_40/tf.math.sigmoid_19/Sigmoid"], "attr": {"T": {"type": "DT_FLOAT"}}}, {"name": "model_40/tf.concat_9/concat", "op": "ConcatV2", "input": ["model_40/tf.math.multiply_81/Mul", "model_40/tf.math.multiply_85/Mul", "model_40/tf.concat_9/concat/axis"], "attr": {"N": {"i": "2"}, "T": {"type": "DT_FLOAT"}, "Tidx": {"type": "DT_INT32"}}}, {"name": "model_40/tf.math.add_32/Add", "op": "_FusedConv2D", "input": ["model_40/tf.concat_9/concat", "model_40/tf.nn.convolution_19/convolution/filter", "model_40/tf.math.add_32/Add/y"], "device": "/device:CPU:0", "attr": {"num_host_args": {"i": "0"}, "data_format": {"s": "TkhXQw=="}, "filter_format": {"s": "SFdJTw=="}, "fused_ops": {"list": {"s": ["Qmlhc0FkZA=="]}}, "num_args": {"i": "1"}, "strides": {"list": {"i": ["1", "1", "1", "1"]}}, "TArgs": {"list": {"type": ["DT_FLOAT"]}}, "padding": {"s": "U0FNRQ=="}, "use_cudnn_on_gpu": {"b": true}, "leakyrelu_alpha": {"f": 0.2}, "epsilon": {"f": 0.0}, "T": {"type": "DT_FLOAT"}, "explicit_paddings": {"list": {}}, "dilations": {"list": {"i": ["1", "1", "1", "1"]}}}}, {"name": "model_40/tf.compat.v1.nn.depthwise_conv2d_7/depthwise", "op": "FusedDepthwiseConv2dNative", "input": ["model_40/tf.math.add_32/Add", "model_40/tf.compat.v1.nn.depthwise_conv2d_7/depthwise/filter_in", "model_40/tf.math.add_33/Add/y"], "attr": {"padding": {"s": "U0FNRQ=="}, "data_format": {"s": "TkhXQw=="}, "strides": {"list": {"i": ["1", "1", "1", "1"]}}, "num_args": {"i": "1"}, "fused_ops": {"list": {"s": ["Qmlhc0FkZA=="]}}, "T": {"type": "DT_FLOAT"}, "explicit_paddings": {"list": {}}, "dilations": {"list": {"i": ["1", "1", "1", "1"]}}}}, {"name": "model_40/tf.concat_10/concat", "op": "ConcatV2", "input": ["model_40/tf.math.add_32/Add", "model_40/tf.compat.v1.nn.depthwise_conv2d_7/depthwise", "model_40/tf.concat_10/concat/axis"], "attr": {"N": {"i": "2"}, "T": {"type": "DT_FLOAT"}, "Tidx": {"type": "DT_INT32"}}}, {"name": "model_40/tf.math.add_35/Add", "op": "AddV2", "input": ["model_40/tf.concat_10/concat", "model_40/tf.strided_slice_7/StridedSlice"], "attr": {"T": {"type": "DT_FLOAT"}}}, {"name": "model_40/tf.concat_11/concat", "op": "ConcatV2", "input": ["model_40/tf.strided_slice_6/StridedSlice", "model_40/tf.strided_slice_7/StridedSlice", "model_40/tf.math.add_35/Add", "model_40/tf.concat_11/concat/axis"], "attr": {"N": {"i": "3"}, "T": {"type": "DT_FLOAT"}, "Tidx": {"type": "DT_INT32"}}}, {"name": "model_40/tf.math.add_36/Add", "op": "_FusedConv2D", "input": ["model_40/tf.concat_11/concat", "model_40/tf.nn.convolution_20/convolution/filter", "model_40/tf.math.add_36/Add/y"], "device": "/device:CPU:0", "attr": {"num_host_args": {"i": "0"}, "data_format": {"s": "TkhXQw=="}, "filter_format": {"s": "SFdJTw=="}, "strides": {"list": {"i": ["1", "1", "1", "1"]}}, "num_args": {"i": "1"}, "fused_ops": {"list": {"s": ["Qmlhc0FkZA=="]}}, "TArgs": {"list": {"type": ["DT_FLOAT"]}}, "padding": {"s": "U0FNRQ=="}, "use_cudnn_on_gpu": {"b": true}, "leakyrelu_alpha": {"f": 0.2}, "epsilon": {"f": 0.0}, "T": {"type": "DT_FLOAT"}, "explicit_paddings": {"list": {}}, "dilations": {"list": {"i": ["1", "1", "1", "1"]}}}}, {"name": "model_40/tf.math.sigmoid_20/Sigmoid", "op": "Sigmoid", "input": ["model_40/tf.math.add_36/Add"], "attr": {"T": {"type": "DT_FLOAT"}}}, {"name": "model_40/tf.math.multiply_91/Mul", "op": "Mul", "input": ["model_40/tf.math.add_36/Add", "model_40/tf.math.sigmoid_20/Sigmoid"], "attr": {"T": {"type": "DT_FLOAT"}}}, {"name": "model_40/tf.math.add_37/Add", "op": "_FusedConv2D", "input": ["model_40/tf.math.multiply_91/Mul", "model_40/tf.nn.convolution_21/convolution/filter", "model_40/tf.math.add_37/Add/y"], "device": "/device:CPU:0", "attr": {"num_host_args": {"i": "0"}, "data_format": {"s": "TkhXQw=="}, "filter_format": {"s": "SFdJTw=="}, "fused_ops": {"list": {"s": ["Qmlhc0FkZA=="]}}, "num_args": {"i": "1"}, "strides": {"list": {"i": ["1", "1", "1", "1"]}}, "TArgs": {"list": {"type": ["DT_FLOAT"]}}, "padding": {"s": "U0FNRQ=="}, "use_cudnn_on_gpu": {"b": true}, "leakyrelu_alpha": {"f": 0.2}, "epsilon": {"f": 0.0}, "T": {"type": "DT_FLOAT"}, "explicit_paddings": {"list": {}}, "dilations": {"list": {"i": ["1", "1", "1", "1"]}}}}, {"name": "model_40/tf.math.sigmoid_21/Sigmoid", "op": "Sigmoid", "input": ["model_40/tf.math.add_37/Add"], "attr": {"T": {"type": "DT_FLOAT"}}}, {"name": "model_40/tf.math.multiply_95/Mul", "op": "Mul", "input": ["model_40/tf.math.add_37/Add", "model_40/tf.math.sigmoid_21/Sigmoid"], "attr": {"T": {"type": "DT_FLOAT"}}}, {"name": "model_40/tf.compat.v1.nn.pool/max_pool", "op": "MaxPool", "input": ["model_40/tf.math.multiply_95/Mul"], "attr": {"padding": {"s": "U0FNRQ=="}, "data_format": {"s": "TkhXQw=="}, "T": {"type": "DT_FLOAT"}, "explicit_paddings": {"list": {}}, "ksize": {"list": {"i": ["1", "5", "5", "1"]}}, "strides": {"list": {"i": ["1", "1", "1", "1"]}}}}, {"name": "model_40/tf.compat.v1.nn.pool_1/max_pool", "op": "MaxPool", "input": ["model_40/tf.compat.v1.nn.pool/max_pool"], "attr": {"ksize": {"list": {"i": ["1", "5", "5", "1"]}}, "data_format": {"s": "TkhXQw=="}, "T": {"type": "DT_FLOAT"}, "explicit_paddings": {"list": {}}, "padding": {"s": "U0FNRQ=="}, "strides": {"list": {"i": ["1", "1", "1", "1"]}}}}, {"name": "model_40/tf.compat.v1.nn.pool_2/max_pool", "op": "MaxPool", "input": ["model_40/tf.compat.v1.nn.pool_1/max_pool"], "attr": {"ksize": {"list": {"i": ["1", "5", "5", "1"]}}, "data_format": {"s": "TkhXQw=="}, "T": {"type": "DT_FLOAT"}, "explicit_paddings": {"list": {}}, "padding": {"s": "U0FNRQ=="}, "strides": {"list": {"i": ["1", "1", "1", "1"]}}}}, {"name": "model_40/tf.concat_12/concat", "op": "ConcatV2", "input": ["model_40/tf.math.multiply_95/Mul", "model_40/tf.compat.v1.nn.pool/max_pool", "model_40/tf.compat.v1.nn.pool_1/max_pool", "model_40/tf.compat.v1.nn.pool_2/max_pool", "model_40/tf.concat_12/concat/axis"], "attr": {"N": {"i": "4"}, "T": {"type": "DT_FLOAT"}, "Tidx": {"type": "DT_INT32"}}}, {"name": "model_40/tf.math.add_38/Add", "op": "_FusedConv2D", "input": ["model_40/tf.concat_12/concat", "model_40/tf.nn.convolution_22/convolution/filter", "model_40/tf.math.add_38/Add/y"], "device": "/device:CPU:0", "attr": {"num_host_args": {"i": "0"}, "data_format": {"s": "TkhXQw=="}, "filter_format": {"s": "SFdJTw=="}, "fused_ops": {"list": {"s": ["Qmlhc0FkZA=="]}}, "num_args": {"i": "1"}, "strides": {"list": {"i": ["1", "1", "1", "1"]}}, "TArgs": {"list": {"type": ["DT_FLOAT"]}}, "padding": {"s": "U0FNRQ=="}, "use_cudnn_on_gpu": {"b": true}, "leakyrelu_alpha": {"f": 0.2}, "epsilon": {"f": 0.0}, "T": {"type": "DT_FLOAT"}, "explicit_paddings": {"list": {}}, "dilations": {"list": {"i": ["1", "1", "1", "1"]}}}}, {"name": "model_40/tf.math.sigmoid_22/Sigmoid", "op": "Sigmoid", "input": ["model_40/tf.math.add_38/Add"], "attr": {"T": {"type": "DT_FLOAT"}}}, {"name": "model_40/tf.math.multiply_99/Mul", "op": "Mul", "input": ["model_40/tf.math.add_38/Add", "model_40/tf.math.sigmoid_22/Sigmoid"], "attr": {"T": {"type": "DT_FLOAT"}}}, {"name": "model_40/tf.math.add_39/Add", "op": "_FusedConv2D", "input": ["model_40/tf.math.multiply_99/Mul", "model_40/tf.nn.convolution_23/convolution/filter", "model_40/tf.math.add_39/Add/y"], "device": "/device:CPU:0", "attr": {"num_host_args": {"i": "0"}, "data_format": {"s": "TkhXQw=="}, "filter_format": {"s": "SFdJTw=="}, "fused_ops": {"list": {"s": ["Qmlhc0FkZA=="]}}, "num_args": {"i": "1"}, "strides": {"list": {"i": ["1", "1", "1", "1"]}}, "TArgs": {"list": {"type": ["DT_FLOAT"]}}, "padding": {"s": "U0FNRQ=="}, "use_cudnn_on_gpu": {"b": true}, "leakyrelu_alpha": {"f": 0.2}, "epsilon": {"f": 0.0}, "T": {"type": "DT_FLOAT"}, "explicit_paddings": {"list": {}}, "dilations": {"list": {"i": ["1", "1", "1", "1"]}}}}, {"name": "model_40/tf.math.sigmoid_23/Sigmoid", "op": "Sigmoid", "input": ["model_40/tf.math.add_39/Add"], "attr": {"T": {"type": "DT_FLOAT"}}}, {"name": "model_40/tf.math.multiply_103/Mul", "op": "Mul", "input": ["model_40/tf.math.add_39/Add", "model_40/tf.math.sigmoid_23/Sigmoid"], "attr": {"T": {"type": "DT_FLOAT"}}}, {"name": "model_40/tf.strided_slice_8/StridedSlice", "op": "StridedSlice", "input": ["model_40/tf.math.multiply_103/Mul", "model_40/tf.strided_slice_8/StridedSlice/begin", "model_40/tf.strided_slice_8/StridedSlice/end", "model_40/tf.strided_slice_8/ones_like"], "attr": {"shrink_axis_mask": {"i": "0"}, "new_axis_mask": {"i": "0"}, "Index": {"type": "DT_INT32"}, "begin_mask": {"i": "7"}, "end_mask": {"i": "7"}, "T": {"type": "DT_FLOAT"}, "ellipsis_mask": {"i": "0"}}}, {"name": "model_40/tf.strided_slice_9/StridedSlice", "op": "StridedSlice", "input": ["model_40/tf.math.multiply_103/Mul", "model_40/tf.strided_slice_9/StridedSlice/begin", "model_40/tf.strided_slice_9/StridedSlice/end", "model_40/tf.strided_slice_9/ones_like"], "attr": {"shrink_axis_mask": {"i": "0"}, "new_axis_mask": {"i": "0"}, "Index": {"type": "DT_INT32"}, "begin_mask": {"i": "7"}, "end_mask": {"i": "7"}, "T": {"type": "DT_FLOAT"}, "ellipsis_mask": {"i": "0"}}}, {"name": "model_40/tf.math.add_40/Add", "op": "_FusedConv2D", "input": ["model_40/tf.strided_slice_9/StridedSlice", "model_40/tf.nn.convolution_24/convolution/filter", "model_40/tf.math.add_40/Add/y"], "device": "/device:CPU:0", "attr": {"num_host_args": {"i": "0"}, "data_format": {"s": "TkhXQw=="}, "filter_format": {"s": "SFdJTw=="}, "fused_ops": {"list": {"s": ["Qmlhc0FkZA=="]}}, "num_args": {"i": "1"}, "strides": {"list": {"i": ["1", "1", "1", "1"]}}, "TArgs": {"list": {"type": ["DT_FLOAT"]}}, "padding": {"s": "U0FNRQ=="}, "use_cudnn_on_gpu": {"b": true}, "leakyrelu_alpha": {"f": 0.2}, "epsilon": {"f": 0.0}, "T": {"type": "DT_FLOAT"}, "explicit_paddings": {"list": {}}, "dilations": {"list": {"i": ["1", "1", "1", "1"]}}}}, {"name": "model_40/tf.compat.v1.transpose_30/transpose", "op": "Transpose", "input": ["model_40/tf.math.add_40/Add", "model_40/tf.compat.v1.transpose_30/transpose/perm"], "attr": {"Tperm": {"type": "DT_INT32"}, "T": {"type": "DT_FLOAT"}}}, {"name": "model_40/tf.reshape_2/Reshape", "op": "Reshape", "input": ["model_40/tf.compat.v1.transpose_30/transpose", "model_40/tf.reshape_2/Reshape/shape"], "attr": {"T": {"type": "DT_FLOAT"}, "Tshape": {"type": "DT_INT32"}}}, {"name": "model_40/tf.strided_slice_10/StridedSlice", "op": "StridedSlice", "input": ["model_40/tf.reshape_2/Reshape", "model_40/tf.strided_slice_10/StridedSlice/begin", "model_40/tf.strided_slice_10/StridedSlice/end", "model_40/tf.strided_slice_10/ones_like"], "attr": {"shrink_axis_mask": {"i": "0"}, "new_axis_mask": {"i": "0"}, "Index": {"type": "DT_INT32"}, "begin_mask": {"i": "11"}, "T": {"type": "DT_FLOAT"}, "end_mask": {"i": "11"}, "ellipsis_mask": {"i": "0"}}}, {"name": "model_40/tf.strided_slice_11/StridedSlice", "op": "StridedSlice", "input": ["model_40/tf.reshape_2/Reshape", "model_40/tf.strided_slice_11/StridedSlice/begin", "model_40/tf.strided_slice_11/StridedSlic…
evice": "/device:CPU:0", "attr": {"padding": {"s": "U0FNRQ=="}, "data_format": {"s": "TkhXQw=="}, "strides": {"list": {"i": ["1", "1", "1", "1"]}}, "use_cudnn_on_gpu": {"b": true}, "T": {"type": "DT_FLOAT"}, "explicit_paddings": {"list": {}}, "dilations": {"list": {"i": ["1", "1", "1", "1"]}}}}, {"name": "model_40/tf.compat.v1.transpose_162/transpose", "op": "Transpose", "input": ["model_40/tf.nn.convolution_202/convolution", "model_40/tf.compat.v1.transpose_162/transpose/perm"], "attr": {"Tperm": {"type": "DT_INT32"}, "T": {"type": "DT_FLOAT"}}}, {"name": "model_40/tf.reshape_44/Reshape", "op": "Reshape", "input": ["model_40/tf.compat.v1.transpose_162/transpose", "model_40/tf.reshape_44/Reshape/shape"], "attr": {"T": {"type": "DT_FLOAT"}, "Tshape": {"type": "DT_INT32"}}}, {"name": "model_40/tf.strided_slice_26/StridedSlice", "op": "StridedSlice", "input": ["model_40/tf.reshape_44/Reshape", "model_40/tf.strided_slice_26/ones_like/tensor", "model_40/tf.strided_slice_26/StridedSlice/end", "model_40/tf.strided_slice_26/ones_like"], "attr": {"shrink_axis_mask": {"i": "0"}, "Index": {"type": "DT_INT64"}, "new_axis_mask": {"i": "0"}, "begin_mask": {"i": "5"}, "end_mask": {"i": "5"}, "T": {"type": "DT_FLOAT"}, "ellipsis_mask": {"i": "0"}}}, {"name": "model_40/tf.strided_slice_25/StridedSlice", "op": "StridedSlice", "input": ["model_40/tf.reshape_44/Reshape", "model_40/tf.strided_slice_25/ones_like/tensor", "model_40/tf.strided_slice_25/StridedSlice/end", "model_40/tf.strided_slice_25/ones_like"], "attr": {"shrink_axis_mask": {"i": "0"}, "Index": {"type": "DT_INT64"}, "new_axis_mask": {"i": "0"}, "begin_mask": {"i": "7"}, "end_mask": {"i": "5"}, "T": {"type": "DT_FLOAT"}, "ellipsis_mask": {"i": "0"}}}, {"name": "model_40/tf.math.add_122/Add", "op": "AddV2", "input": ["model_40/tf.strided_slice_26/StridedSlice", "model_40/tf.math.add_122/Add/y"], "attr": {"T": {"type": "DT_FLOAT"}}}, {"name": "model_40/tf.math.subtract/Sub", "op": "Sub", "input": ["model_40/37009", "model_40/tf.strided_slice_25/StridedSlice"], "attr": {"T": {"type": "DT_FLOAT"}}}, {"name": "model_40/tf.math.add_123/Add", "op": "AddV2", "input": ["model_40/tf.math.subtract/Sub", "model_40/tf.math.add_122/Add"], "attr": {"T": {"type": "DT_FLOAT"}}}, {"name": "model_40/tf.math.subtract_1/Sub", "op": "Sub", "input": ["model_40/tf.math.add_122/Add", "model_40/tf.math.subtract/Sub"], "attr": {"T": {"type": "DT_FLOAT"}}}, {"name": "model_40/tf.math.divide/truediv", "op": "Mul", "input": ["model_40/tf.math.add_123/Add", "ConstantFolding/model_40/tf.math.divide/truediv_recip"], "attr": {"T": {"type": "DT_FLOAT"}}}, {"name": "model_40/tf.concat_36/concat", "op": "ConcatV2", "input": ["model_40/tf.math.divide/truediv", "model_40/tf.math.subtract_1/Sub", "model_40/tf.concat_36/concat/axis"], "attr": {"N": {"i": "2"}, "Tidx": {"type": "DT_INT32"}, "T": {"type": "DT_FLOAT"}}}, {"name": "model_40/tf.math.multiply_336/Mul", "op": "Mul", "input": ["model_40/tf.concat_36/concat", "model_40/tf.math.multiply_336/Mul/y"], "attr": {"T": {"type": "DT_FLOAT"}}}, {"name": "model_40/output0/concat", "op": "ConcatV2", "input": ["model_40/tf.math.multiply_336/Mul", "model_40/tf.math.sigmoid_72/Sigmoid", "model_40/tf.reshape_38/Reshape", "model_40/output0/concat/axis"], "attr": {"N": {"i": "3"}, "T": {"type": "DT_FLOAT"}, "Tidx": {"type": "DT_INT32"}}}, {"name": "Identity", "op": "Identity", "input": ["model_40/output0/concat"], "attr": {"T": {"type": "DT_FLOAT"}}}], "library": {}, "versions": {"producer": 2129}}, "weightsManifest": [{"paths": ["group1-shard1of3.bin", "group1-shard2of3.bin", "group1-shard3of3.bin"], "weights": [{"name": "ConstantFolding/model_40/tf.math.divide/truediv_recip", "shape": [], "dtype": "float32"}, {"name": "model_40/tf.strided_slice_26/ones_like/tensor", "shape": [3], "dtype": "int32"}, {"name": "model_40/tf.strided_slice_26/StridedSlice/end", "shape": [3], "dtype": "int32"}, {"name": "model_40/tf.strided_slice_26/ones_like", "shape": [3], "dtype": "int32"}, {"name": "model_40/tf.math.add_122/Add/y", "shape": [1, 2, 8400], "dtype": "float32"}, {"name": "model_40/37009", "shape": [1, 2, 8400], "dtype": "float32"}, {"name": "model_40/tf.strided_slice_23/StridedSlice/begin", "shape": [3], "dtype": "int32"}, {"name": "model_40/tf.strided_slice_23/StridedSlice/end", "shape": [3], "dtype": "int32"}, {"name": "model_40/tf.strided_slice_23/StridedSlice/strides", "shape": [3], "dtype": "int32"}, {"name": "model_40/tf.reshape_41/Reshape/shape", "shape": [4], "dtype": "int32"}, {"name": "model_40/tf.compat.v1.transpose_156/transpose/perm", "shape": [4], "dtype": "int32"}, {"name": "model_40/tf.compat.v1.transpose_157/transpose/perm", "shape": [4], "dtype": "int32"}, {"name": "model_40/tf.nn.convolution_202/convolution/filter", "shape": [1, 1, 16, 1], "dtype": "float32"}, {"name": "model_40/tf.compat.v1.transpose_162/transpose/perm", "shape": [4], "dtype": "int32"}, {"name": "model_40/tf.reshape_44/Reshape/shape", "shape": [3], "dtype": "int32"}, {"name": "model_40/tf.strided_slice_25/ones_like/tensor", "shape": [3], "dtype": "int32"}, {"name": "model_40/tf.strided_slice_25/StridedSlice/end", "shape": [3], "dtype": "int32"}, {"name": "model_40/tf.strided_slice_25/ones_like", "shape": [3], "dtype": "int32"}, {"name": "model_40/tf.concat_36/concat/axis", "shape": [], "dtype": "int32"}, {"name": "model_40/tf.math.multiply_336/Mul/y", "shape": [1, 1, 8400], "dtype": "float32"}, {"name": "model_40/tf.nn.convolution_167/convolution/filter", "shape": [3, 3, 64, 64], "dtype": "float32"}, {"name": "model_40/tf.math.add_66/Add/y", "shape": [64], "dtype": "float32"}, {"name": "model_40/tf.nn.convolution_169/convolution/filter", "shape": [3, 3, 64, 64], "dtype": "float32"}, {"name": "model_40/tf.math.add_69/Add/y", "shape": [64], "dtype": "float32"}, {"name": "model_40/tf.nn.convolution_173/convolution/filter", "shape": [1, 1, 64, 64], "dtype": "float32"}, {"name": "model_40/tf.math.add_73/Add/y", "shape": [64], "dtype": "float32"}, {"name": "model_40/tf.compat.v1.nn.depthwise_conv2d_8/depthwise/filter_in", "shape": [3, 3, 64, 1], "dtype": "float32"}, {"name": "model_40/tf.math.add_67/Add/y", "shape": [64], "dtype": "float32"}, {"name": "model_40/tf.nn.convolution_170/convolution/filter", "shape": [1, 1, 64, 64], "dtype": "float32"}, {"name": "model_40/tf.math.add_70/Add/y", "shape": [64], "dtype": "float32"}, {"name": "model_40/tf.compat.v1.nn.depthwise_conv2d_9/depthwise/filter_in", "shape": [3, 3, 64, 1], "dtype": "float32"}, {"name": "model_40/tf.math.add_74/Add/y", "shape": [64], "dtype": "float32"}, {"name": "model_40/tf.nn.convolution_175/convolution/filter", "shape": [1, 1, 64, 64], "dtype": "float32"}, {"name": "model_40/tf.math.add_76/Add/y", "shape": [64], "dtype": "float32"}, {"name": "model_40/tf.nn.convolution_176/convolution/filter", "shape": [1, 1, 64, 1], "dtype": "float32"}, {"name": "model_40/tf.math.add_78/Add/y", "shape": [1], "dtype": "float32"}, {"name": "model_40/tf.concat_20/concat/axis", "shape": [], "dtype": "int32"}, {"name": "model_40/tf.compat.v1.transpose_80/transpose/perm", "shape": [4], "dtype": "int32"}, {"name": "model_40/tf.reshape_14/Reshape/shape", "shape": [3], "dtype": "int32"}, {"name": "model_40/tf.nn.convolution_181/convolution/filter", "shape": [3, 3, 128, 64], "dtype": "float32"}, {"name": "model_40/tf.math.add_89/Add/y", "shape": [64], "dtype": "float32"}, {"name": "model_40/tf.nn.convolution_183/convolution/filter", "shape": [3, 3, 64, 64], "dtype": "float32"}, {"name": "model_40/tf.math.add_92/Add/y", "shape": [64], "dtype": "float32"}, {"name": "model_40/tf.nn.convolution_187/convolution/filter", "shape": [1, 1, 64, 64], "dtype": "float32"}, {"name": "model_40/tf.math.add_96/Add/y", "shape": [64], "dtype": "float32"}, {"name": "model_40/tf.compat.v1.nn.depthwise_conv2d_13/depthwise/filter_in", "shape": [3, 3, 128, 1], "dtype": "float32"}, {"name": "model_40/tf.math.add_90/Add/y", "shape": [128], "dtype": "float32"}, {"name": "model_40/tf.nn.convolution_184/convolution/filter", "shape": [1, 1, 128, 64], "dtype": "float32"}, {"name": "model_40/tf.math.add_93/Add/y", "shape": [64], "dtype": "float32"}, {"name": "model_40/tf.compat.v1.nn.depthwise_conv2d_14/depthwise/filter_in", "shape": [3, 3, 64, 1], "dtype": "float32"}, {"name": "model_40/tf.math.add_97/Add/y", "shape": [64], "dtype": "float32"}, {"name": "model_40/tf.nn.convolution_189/convolution/filter", "shape": [1, 1, 64, 64], "dtype": "float32"}, {"name": "model_40/tf.math.add_99/Add/y", "shape": [64], "dtype": "float32"}, {"name": "model_40/tf.nn.convolution_190/convolution/filter", "shape": [1, 1, 64, 1], "dtype": "float32"}, {"name": "model_40/tf.math.add_101/Add/y", "shape": [1], "dtype": "float32"}, {"name": "model_40/tf.concat_25/concat/axis", "shape": [], "dtype": "int32"}, {"name": "model_40/tf.compat.v1.transpose_106/transpose/perm", "shape": [4], "dtype": "int32"}, {"name": "model_40/tf.reshape_20/Reshape/shape", "shape": [3], "dtype": "int32"}, {"name": "model_40/tf.nn.convolution_194/convolution/filter", "shape": [3, 3, 256, 64], "dtype": "float32"}, {"name": "model_40/tf.math.add_111/Add/y", "shape": [64], "dtype": "float32"}, {"name": "model_40/tf.nn.convolution_196/convolution/filter", "shape": [3, 3, 64, 64], "dtype": "float32"}, {"name": "model_40/tf.math.add_114/Add/y", "shape": [64], "dtype": "float32"}, {"name": "model_40/tf.nn.convolution_199/convolution/filter", "shape": [1, 1, 64, 64], "dtype": "float32"}, {"name": "model_40/tf.math.add_117/Add/y", "shape": [64], "dtype": "float32"}, {"name": "model_40/tf.compat.v1.nn.depthwise_conv2d_18/depthwise/filter_in", "shape": [3, 3, 256, 1], "dtype": "float32"}, {"name": "model_40/tf.math.add_112/Add/y", "shape": [256], "dtype": "float32"}, {"name": "model_40/tf.nn.convolution_197/convolution/filter", "shape": [1, 1, 256, 64], "dtype": "float32"}, {"name": "model_40/tf.math.add_115/Add/y", "shape": [64], "dtype": "float32"}, {"name": "model_40/tf.compat.v1.nn.depthwise_conv2d_19/depthwise/filter_in", "shape": [3, 3, 64, 1], "dtype": "float32"}, {"name": "model_40/tf.math.add_118/Add/y", "shape": [64], "dtype": "float32"}, {"name": "model_40/tf.nn.convolution_200/convolution/filter", "shape": [1, 1, 64, 64], "dtype": "float32"}, {"name": "model_40/tf.math.add_119/Add/y", "shape": [64], "dtype": "float32"}, {"name": "model_40/tf.nn.convolution_201/convolution/filter", "shape": [1, 1, 64, 1], "dtype": "float32"}, {"name": "model_40/tf.math.add_120/Add/y", "shape": [1], "dtype": "float32"}, {"name": "model_40/tf.concat_30/concat/axis", "shape": [], "dtype": "int32"}, {"name": "model_40/tf.compat.v1.transpose_145/transpose/perm", "shape": [4], "dtype": "int32"}, {"name": "model_40/tf.reshape_35/Reshape/shape", "shape": [3], "dtype": "int32"}, {"name": "model_40/tf.concat_32/concat/axis", "shape": [], "dtype": "int32"}, {"name": "model_40/tf.strided_slice_24/StridedSlice/begin", "shape": [3], "dtype": "int32"}, {"name": "model_40/tf.strided_slice_24/StridedSlice/end", "shape": [3], "dtype": "int32"}, {"name": "model_40/tf.strided_slice_24/StridedSlice/strides", "shape": [3], "dtype": "int32"}, {"name": "model_40/tf.strided_slice_21/StridedSlice/begin", "shape": [4], "dtype": "int32"}, {"name": "model_40/tf.strided_slice_21/StridedSlice/end", "shape": [4], "dtype": "int32"}, {"name": "model_40/tf.strided_slice_21/StridedSlice/strides", "shape": [4], "dtype": "int32"}, {"name": "model_40/tf.math.multiply_322/Mul/y", "shape": [], "dtype": "float32"}, {"name": "model_40/tf.math.add_121/Add/y", "shape": [1, 1, 2, 8400], "dtype": "float32"}, {"name": "model_40/tf.math.multiply_323/Mul/y", "shape": [1, 1, 1, 8400], "dtype": "float32"}, {"name": "model_40/tf.nn.convolution_166/convolution/filter", "shape": [3, 3, 64, 51], "dtype": "float32"}, {"name": "model_40/tf.math.add_65/Add/y", "shape": [51], "dtype": "float32"}, {"name": "model_40/tf.nn.convolution_168/convolution/filter", "shape": [3, 3, 51, 51], "dtype": "float32"}, {"name": "model_40/tf.math.add_68/Add/y", "shape": [51], "dtype": "float32"}, {"name": "model_40/tf.nn.convolution_172/convolution/filter", "shape": [1, 1, 51, 51], "dtype": "float32"}, {"name": "model_40/tf.math.add_72/Add/y", "shape": [51], "dtype": "float32"}, {"name": "model_40/tf.compat.v1.transpose_71/transpose/perm", "shape": [4], "dtype": "int32"}, {"name": "model_40/tf.reshape_11/Reshape/shape", "shape": [3], "dtype": "int32"}, {"name": "model_40/tf.nn.convolution_180/convolution/filter", "shape": [3, 3, 128, 51], "dtype": "float32"}, {"name": "model_40/tf.math.add_88/Add/y", "shape": [51], "dtype": "float32"}, {"name": "model_40/tf.nn.convolution_182/convolution/filter", "shape": [3, 3, 51, 51], "dtype": "float32"}, {"name": "model_40/tf.math.add_91/Add/y", "shape": [51], "dtype": "float32"}, {"name": "model_40/tf.nn.convolution_186/convolution/filter", "shape": [1, 1, 51, 51], "dtype": "float32"}, {"name": "model_40/tf.math.add_95/Add/y", "shape": [51], "dtype": "float32"}, {"name": "model_40/tf.compat.v1.transpose_97/transpose/perm", "shape": [4], "dtype": "int32"}, {"name": "model_40/tf.reshape_17/Reshape/shape", "shape": [3], "dtype": "int32"}, {"name": "model_40/tf.strided_slice_19/ones_like/tensor", "shape": [4], "dtype": "int32"}, {"name": "model_40/tf.strided_slice_19/StridedSlice/end", "shape": [4], "dtype": "int32"}, {"name": "model_40/tf.strided_slice_19/ones_like", "shape": [4], "dtype": "int32"}, {"name": "model_40/tf.math.multiply_272/Mul/y", "shape": [1, 1, 1, 1], "dtype": "float32"}, {"name": "model_40/tf.math.multiply_278/Mul/y", "shape": [1, 1, 1, 1], "dtype": "float32"}, {"name": "model_40/tf.nn.convolution_188/convolution/filter", "shape": [1, 1, 128, 32], "dtype": "float32"}, {"name": "model_40/tf.math.add_98/Add/y", "shape": [32], "dtype": "float32"}, {"name": "model_40/tf.compat.v1.nn.depthwise_conv2d_15/depthwise/filter_in", "shape": [5, 5, 32, 1], "dtype": "float32"}, {"name": "model_40/tf.math.add_100/Add/y", "shape": [32], "dtype": "float32"}, {"name": "model_40/tf.concat_26/concat/axis", "shape": [], "dtype": "int32"}, {"name": "model_40/tf.nn.convolution_191/convolution/filter", "shape": [1, 1, 64, 64], "dtype": "float32"}, {"name": "model_40/tf.math.add_102/Add/y", "shape": [64], "dtype": "float32"}, {"name": "model_40/tf.compat.v1.nn.depthwise_conv2d_16/depthwise/filter_in", "shape": [5, 5, 64, 1], "dtype": "float32"}, {"name": "model_40/tf.math.add_103/Add/y", "shape": [64], "dtype": "float32"}, {"name": "model_40/tf.concat_27/concat/axis", "shape": [], "dtype": "int32"}, {"name": "model_40/tf.strided_slice_17/ones_like/tensor", "shape": [4], "dtype": "int32"}, {"name": "model_40/tf.strided_slice_17/StridedSlice/end", "shape": [4], "dtype": "int32"}, {"name": "model_40/tf.strided_slice_17/ones_like", "shape": [4], "dtype": "int32"}, {"name": "model_40/tf.math.multiply_208/Mul/y", "shape": [1, 1, 1, 1], "dtype": "float32"}, {"name": "model_40/tf.math.multiply_214/Mul/y", "shape": [1, 1, 1, 1], "dtype": "float32"}, {"name": "model_40/tf.nn.convolution_174/convolution/filter", "shape": [1, 1, 64, 16], "dtype": "float32"}, {"name": "model_40/tf.math.add_75/Add/y", "shape": [16], "dtype": "float32"}, {"name": "model_40/tf.compat.v1.nn.depthwise_conv2d_10/depthwise/filter_in", "shape": [5, 5, 16, 1], "dtype": "float32"}, {"name": "model_40/tf.math.add_77/Add/y", "shape": [16], "dtype": "float32"}, {"name": "model_40/tf.concat_21/concat/axis", "shape": [], "dtype": "int32"}, {"name": "model_40/tf.nn.convolution_177/convolution/filter", "shape": [1, 1, 32, 32], "dtype": "float32"}, {"name": "model_40/tf.math.add_79/Add/y", "shape": [32], "dtype": "float32"}, {"name": "model_40/tf.compat.v1.nn.depthwise_conv2d_11/depthwise/filter_in", "shape": [5, 5, 32, 1], "dtype": "float32"}, {"name": "model_40/tf.math.add_80/Add/y", "shape": [32], "dtype": "float32"}, {"name": "model_40/tf.concat_22/concat/axis", "shape": [], "dtype": "int32"}, {"name": "model_40/tf.strided_slice_15/ones_like/tensor", "shape": [4], "dtype": "int32"}, {"name": "model_40/tf.strided_slice_15/StridedSlice/end", "shape": [4], "dtype": "int32"}, {"name": "model_40/tf.strided_slice_15/ones_like", "shape": [4], "dtype": "int32"}, {"name": "model_40/tf.image.resize_1/resize/size", "shape": [2], "dtype": "int32"}, {"name": "model_40/tf.concat_17/concat/axis", "shape": [], "dtype": "int32"}, {"name": "model_40/tf.nn.convolution_161/convolution/filter", "shape": [1, 1, 256, 64], "dtype": "float32"}, {"name": "model_40/tf.math.add_58/Add/y", "shape": [64], "dtype": "float32"}, {"name": "model_40/tf.strided_slice_16/ones_like/tensor", "shape": [4], "dtype": "int32"}, {"name": "model_40/tf.strided_slice_16/StridedSlice/end", "shape": [4], "dtype": "int32"}, {"name": "model_40/tf.strided_slice_16/ones_like", "shape": [4], "dtype": "int32"}, {"name": "model_40/tf.nn.convolution_162/convolution/filter", "shape": [3, 3, 32, 16], "dtype": "float32"}, {"name": "model_40/tf.math.add_59/Add/y", "shape": [16], "dtype": "float32"}, {"name": "model_40/tf.nn.convolution_163/convolution/filter", "shape": [3, 3, 16, 32], "dtype": "float32"}, {"name": "model_40/tf.math.add_60/Add/y", "shape": [32], "dtype": "float32"}, {"name": "model_40/tf.concat_18/concat/axis", "shape": [], "dtype": "int32"}, {"name": "model_40/tf.nn.convolution_164/convolution/filter", "shape": [1, 1, 96, 64], "dtype": "float32"}, {"name": "model_40/tf.math.add_63/Add/y", "shape": [64], "dtype": "float32"}, {"name": "model_40/tf.compat.v1.pad_5/Pad/paddings", "shape": [4, 2], "dtype": "int32"}, {"name": "model_40/tf.nn.convolution_165/convolution/filter", "shape": [3, 3, 64, 64], "dtype": "float32"}, {"name": "model_40/tf.math.add_64/Add/y", "shape": [64], "dtype": "float32"}, {"name": "model_40/tf.strided_slice_13/ones_like/tensor", "shape": [4], "dtype": "int32"}, {"name": "model_40/tf.strided_slice_13/StridedSlice/end", "shape": [4], "dtype": "int32"}, {"name": "model_40/tf.strided_slice_13/ones_like", "shape": [4], "dtype": "int32"}, {"name": "model_40/tf.image.resize/resize/size", "shape": [2], "dtype": "int32"}, {"name": "model_40/tf.concat_15/concat/axis", "shape": [], "dtype": "int32"}, {"name": "model_40/tf.nn.convolution_157/convolution/filter", "shape": [1, 1, 384, 128], "dtype": "float32"}, {"name": "model_40/tf.math.add_52/Add/y", "shape": [128], "dtype": "float32"}, {"name": "model_40/tf.strided_slice_14/ones_like/tensor", "shape": [4], "dtype": "int32"}, {"name": "model_40/tf.strided_slice_14/StridedSlice/end", "shape": [4], "dtype": "int32"}, {"name": "model_40/tf.strided_slice_14/ones_like", "shape": [4], "dtype": "int32"}, {"name": "model_40/tf.nn.convolution_158/convolution/filter", "shape": [3, 3, 64, 32], "dtype": "float32"}, {"name": "model_40/tf.math.add_53/Add/y", "shape": [32], "dtype": "float32"}, {"name": "model_40/tf.nn.convolution_159/convolution/filter", "shape": [3, 3, 32, 64], "dtype": "float32"}, {"name": "model_40/tf.math.add_54/Add/y", "shape": [64], "dtype": "float32"}, {"name": "model_40/tf.concat_16/concat/axis", "shape": [], "dtype": "int32"}, {"name": "model_40/tf.nn.convolution_160/convolution/filter", "shape": [1, 1, 192, 128], "dtype": "float32"}, {"name": "model_40/tf.math.add_57/Add/y", "shape": [128], "dtype": "float32"}, {"name": "model_40/tf.concat_19/concat/axis", "shape": [], "dtype": "int32"}, {"name": "model_40/tf.nn.convolution_171/convolution/filter", "shape": [1, 1, 192, 128], "dtype": "float32"}, {"name": "model_40/tf.math.add_71/Add/y", "shape": [128], "dtype": "float32"}, {"name": "model_40/tf.strided_slice_18/ones_like/tensor", "shape": [4], "dtype": "int32"}, {"name": "model_40/tf.strided_slice_18/StridedSlice/end", "shape": [4], "dtype": "int32"}, {"name": "model_40/tf.strided_slice_18/ones_like", "shape": [4], "dtype": "int32"}, {"name": "model_40/tf.compat.v1.nn.depthwise_conv2d_12/depthwise/filter_in", "shape": [3, 3, 64, 1], "dtype": "float32"}, {"name": "model_40/tf.math.add_83/Add/y", "shape": [64], "dtype": "float32"}, {"name": "model_40/tf.concat_23/concat/axis", "shape": [], "dtype": "int32"}, {"name": "model_40/tf.nn.convolution_178/convolution/filter", "shape": [1, 1, 192, 128], "dtype": "float32"}, {"name": "model_40/tf.math.add_86/Add/y", "shape": [128], "dtype": "float32"}, {"name": "model_40/tf.compat.v1.pad_6/Pad/paddings", "shape": [4, 2], "dtype": "int32"}, {"name": "model_40/tf.nn.convolution_179/convolution/filter", "shape": [3, 3, 128, 128], "dtype": "float32"}, {"name": "model_40/tf.math.add_87/Add/y", "shape": [128], "dtype": "float32"}, {"name": "model_40/tf.strided_slice_8/StridedSlice/begin", "shape": [4], "dtype": "int32"}, {"name": "model_40/tf.strided_slice_8/StridedSlice/end", "shape": [4], "dtype": "int32"}, {"name": "model_40/tf.strided_slice_8/ones_like", "shape": [4], "dtype": "int32"}, {"name": "model_40/tf.math.add_48/Add/y", "shape": [128], "dtype": "float32"}, {"name": "model_40/tf.math.add_41/Add/y", "shape": [128], "dtype": "float32"}, {"name": "model_40/tf.strided_slice_10/StridedSlice/begin", "shape": [4], "dtype": "int32"}, {"name": "model_40/tf.strided_slice_10/StridedSlice/end", "shape": [4], "dtype": "int32"}, {"name": "model_40/tf.strided_slice_10/ones_like", "shape": [4], "dtype": "int32"}, {"name": "model_40/tf.strided_slice_11/StridedSlice/begin", "shape": [4], "dtype": "int32"}, {"name": "model_40/tf.strided_slice_11/StridedSlice/end", "shape": [4], "dtype": "int32"}, {"name": "model_40/tf.strided_slice_11/ones_like", "shape": [4], "dtype": "int32"}, {"name": "model_40/tf.math.multiply_106/Mul/y", "shape": [], "dtype": "float32"}, {"name": "model_40/tf.reshape_8/Reshape/shape", "shape": [4], "dtype": "int32"}, {"name": "model_40/tf.compat.v1.transpose_45/transpose/perm", "shape": [4], "dtype": "int32"}, {"name": "model_40/tf.nn.convolution_25/convolution/filter", "shape": [3, 3, 1, 1], "dtype": "float32"}, {"name": "model_40/tf.nn.convolution_26/convolution/filter", "shape": [3, 3, 1, 1], "dtype": "float32"}, {"name": "model_40/tf.nn.convolution_27/convolution/filter", "shape": [3, 3, 1, 1], "dtype": "float32"}, {"name": "model_40/tf.nn.convolution_28/convolution/filter", "shape": [3, 3, 1, 1], "dtype": "float32"}, {"name": "model_40/tf.nn.convolution_29/convolution/filter", "shape": [3, 3, 1, 1], "dtype": "float32"}, {"name": "model_40/tf.nn.convolution_30/convolution/filter", "shape": [3, 3, 1, 1], "dtype": "float32"}, {"name": "model_40/tf.nn.convolution_31/convolution/filter", "shape": [3, 3, 1, 1], "dtype": "float32"}, {"name": "model_40/tf.nn.convolution_32/convolution/filter", "shape": [3, 3, 1, 1], "dtype": "float32"}, {"name": "model_40/tf.nn.convolution_33/convolution/filter", "shape": [3, 3, 1, 1], "dtype": "float32"}, {"name": "model_40/tf.nn.convolution_34/convolution/filter", "shape": [3, 3, 1, 1], "dtype": "float32"}, {"name": "model_40/tf.nn.convolution_35/convolution/filter", "shape": [3, 3, 1, 1], "dtype": "float32"}, {"name": "model_40/tf.nn.convolution_36/convolution/filter", "shape": [3, 3, 1, 1], "dtype": "float32"}, {"name": "model_40/tf.nn.convolution_37/convolution/filter", "shape": [3, 3, 1, 1], "dtype": "float32"}, {"name": "model_40/tf.nn.convolution_38/convolution/filter", "shape": [3, 3, 1, 1], "dtype": "float32"}, {"name": "model_40/tf.nn.convolution_39/convolution/filter", "shape": [3, 3, 1, 1], "dtype": "float32"}, {"name": "model_40/tf.nn.convolution_40/convolution/filter", "shape": [3, 3, 1, 1], "dtype": "float32"}, {"name": "model_40/tf.nn.convolution_41/convolution/filter", "shape": [3, 3, 1, 1], "dtype": "float32"}, {"name": "model_40/tf.nn.convolution_42/convolution/filter", "shape": [3, 3, 1, 1], "dtype": "float32"}, {"name": "model_40/tf.nn.convolution_43/convolution/filter", "shape": [3, 3, 1, 1], "dtype": "float32"}, {"name": "model_40/tf.nn.convolution_44/convolution/filter", "shape": [3, 3, 1, 1], "dtype": "float32"}, {"name": "model_40/tf.nn.convolution_45/convolution/filter", "shape": [3, 3, 1, 1], "dtype": "float32"}, {"name": "model_40/tf.nn.convolution_46/convolution/filter", "shape": [3, 3, 1, 1], "dtype": "float32"}, {"name": "model_40/tf.nn.convolution_47/convolution/filter", "shape": [3, 3, 1, 1], "dtype": "float32"}, {"name": "model_40/tf.nn.convolution_48/convolution/filter", "shape": [3, 3, 1, 1], "dtype": "float32"}, {"name": "model_40/tf.nn.convolution_49/convolution/filter", "shape": [3, 3, 1, 1], "dtype": "float32"}, {"name": "model_40/tf.nn.convolution_50/convolution/filter", "shape": [3, 3, 1, 1], "dtype": "float32"}, {"name": "model_40/tf.nn.convolution_51/convolution/filter", "shape": [3, 3, 1, 1], "dtype": "float32"}, {"name": "model_40/tf.nn.convolution_52/convolution/filter", "shape": [3, 3, 1, 1], "dtype": "float32"}, {"name": "model_40/tf.nn.convolution_53/convolution/filter", "shape": [3, 3, 1, 1], "dtype": "float32"}, {"name": "model_40/tf.nn.convolution_54/convolution/filter", "shape": [3, 3, 1, 1], "dtype": "float32"}, {"name": "model_40/tf.nn.convolution_55/convolution/filter", "shape": [3, 3, 1, 1], "dtype": "float32"}, {"name": "model_40/tf.nn.convolution_56/convolution/filter", "shape": [3, 3, 1, 1], "dtype": "float32"}, {"name": "model_40/tf.nn.convolution_57/convolution/filter", "shape": [3, 3, 1, 1], "dtype": "float32"}, {"name": "model_40/tf.nn.convolution_58/convolution/filter", "shape": [3, 3, 1, 1], "dtype": "float32"}, {"name": "model_40/tf.nn.convolution_59/convolution/filter", "shape": [3, 3, 1, 1], "dtype": "float32"}, {"name": "model_40/tf.nn.convolution_60/convolution/filter", "shape": [3, 3, 1, 1], "dtype": "float32"}, {"name": "model_40/tf.nn.convolution_61/convolution/filter", "shape": [3, 3, 1, 1], "dtype": "float32"}, {"name": "model_40/tf.nn.convolution_62/convolution/filter", "shape": [3, 3, 1, 1], "dtype": "float32"}, {"name": "model_40/tf.nn.convolution_63/convolution/filter", "shape": [3, 3, 1, 1], "dtype": "float32"}, {"name": "model_40/tf.nn.convolution_64/convolution/filter", "shape": [3, 3, 1, 1], "dtype": "float32"}, {"name": "model_40/tf.nn.convolution_65/convolution/filter", "shape": [3, 3, 1, 1], "dtype": "float32"}, {"name": "model_40/tf.nn.convolution_66/convolution/filter", "shape": [3, 3, 1, 1], "dtype": "float32"}, {"name": "model_40/tf.nn.convolution_67/convolution/filter", "shape": [3, 3, 1, 1], "dtype": "float32"}, {"name": "model_40/tf.nn.convolution_68/convolution/filter", "shape": [3, 3, 1, 1], "dtype": "float32"}, {"name": "model_40/tf.nn.convolution_69/convolution/filter", "shape": [3, 3, 1, 1], "dtype": "float32"}, {"name": "model_40/tf.nn.convolution_70/convolution/filter", "shape": [3, 3, 1, 1], "dtype": "float32"}, {"name": "model_40/tf.nn.convolution_71/convolution/filter", "shape": [3, 3, 1, 1], "dtype": "float32"}, {"name": "model_40/tf.nn.convolution_72/convolution/filter", "shape": [3, 3, 1, 1], "dtype": "float32"}, {"name": "model_40/tf.nn.convolution_73/convolution/filter", "shape": [3, 3, 1, 1], "dtype": "float32"}, {"name": "model_40/tf.nn.convolution_74/convolution/filter", "shape": [3, 3, 1, 1], "dtype": "float32"}, {"name": "model_40/tf.nn.convolution_75/convolution/filter", "shape": [3, 3, 1, 1], "dtype": "float32"}, {"name": "model_40/tf.nn.convolution_76/convolution/filter", "shape": [3, 3, 1, 1], "dtype": "float32"}, {"name": "model_40/tf.nn.convolution_77/convolution/filter", "shape": [3, 3, 1, 1], "dtype": "float32"}, {"name": "model_40/tf.nn.convolution_78/convolution/filter", "shape": [3, 3, 1, 1], "dtype": "float32"}, {"name": "model_40/tf.nn.convolution_79/convolution/filter", "shape": [3, 3, 1, 1], "dtype": "float32"}, {"name": "model_40/tf.nn.convolution_80/convolution/filter", "shape": [3, 3, 1, 1], "dtype": "float32"}, {"name": "model_40/tf.nn.convolution_81/convolution/filter", "shape": [3, 3, 1, 1], "dtype": "float32"}, {"name": "model_40/tf.nn.convolution_82/convolution/filter", "shape": [3, 3, 1, 1], "dtype": "float32"}, {"name": "model_40/tf.nn.convolution_83/convolution/filter", "shape": [3, 3, 1, 1], "dtype": "float32"}, {"name": "model_40/tf.nn.convolution_84/convolution/filter", "shape": [3, 3, 1, 1], "dtype": "float32"}, {"name": "model_40/tf.nn.convolution_85/convolution/filter", "shape": [3, 3, 1, 1], "dtype": "float32"}, {"name": "model_40/tf.nn.convolution_86/convolution/filter", "shape": [3, 3, 1, 1], "dtype": "float32"}, {"name": "model_40/tf.nn.convolution_87/convolution/filter", "shape": [3, 3, 1, 1], "dtype": "float32"}, {"name": "model_40/tf.nn.convolution_88/convolution/filter", "shape": [3, 3, 1, 1], "dtype": "float32"}, {"name": "model_40/tf.nn.convolution_89/convolution/filter", "shape": [3, 3, 1, 1], "dtype": "float32"}, {"name": "model_40/tf.nn.convolution_90/convolution/filter", "shape": [3, 3, 1, 1], "dtype": "float32"}, {"name": "model_40/tf.nn.convolution_91/convolution/filter", "shape": [3, 3, 1, 1], "dtype": "float32"}, {"name": "model_40/tf.nn.convolution_92/convolution/filter", "shape": [3, 3, 1, 1], "dtype": "float32"}, {"name": "model_40/tf.nn.convolution_93/convolution/filter", "shape": [3, 3, 1, 1], "dtype": "float32"}, {"name": "model_40/tf.nn.convolution_94/convolution/filter", "shape": [3, 3, 1, 1], "dtype": "float32"}, {"name": "model_40/tf.nn.convolution_95/convolution/filter", "shape": [3, 3, 1, 1], "dtype": "float32"}, {"name": "model_40/tf.nn.convolution_96/convolution/filter", "shape": [3, 3, 1, 1], "dtype": "float32"}, {"name": "model_40/tf.nn.convolution_97/convolution/filter", "shape": [3, 3, 1, 1], "dtype": "float32"}, {"name": "model_40/tf.nn.convolution_98/convolution/filter", "shape": [3, 3, 1, 1], "dtype": "float32"}, {"name": "model_40/tf.nn.convolution_99/convolution/filter", "shape": [3, 3, 1, 1], "dtype": "float32"}, {"name": "model_40/tf.nn.convolution_100/convolution/filter", "shape": [3, 3, 1, 1], "dtype": "float32"}, {"name": "model_40/tf.nn.convolution_101/convolution/filter", "shape": [3, 3, 1, 1], "dtype": "float32"}, {"name": "model_40/tf.nn.convolution_102/convolution/filter", "shape": [3, 3, 1, 1], "dtype": "float32"}, {"name": "model_40/tf.nn.convolution_103/convolution/filter", "shape": [3, 3, 1, 1], "dtype": "float32"}, {"name": "model_40/tf.nn.convolution_104/convolution/filter", "shape": [3, 3, 1, 1], "dtype": "float32"}, {"name": "model_40/tf.nn.convolution_105/convolution/filter", "shape": [3, 3, 1, 1], "dtype": "float32"}, {"name": "model_40/tf.nn.convolution_106/convolution/filter", "shape": [3, 3, 1, 1], "dtype": "float32"}, {"name": "model_40/tf.nn.convolution_107/convolution/filter", "shape": [3, 3, 1, 1], "dtype": "float32"}, {"name": "model_40/tf.nn.convolution_108/convolution/filter", "shape": [3, 3, 1, 1], "dtype": "float32"}, {"name": "model_40/tf.nn.convolution_109/convolution/filter", "shape": [3, 3, 1, 1], "dtype": "float32"}, {"name": "model_40/tf.nn.convolution_110/convolution/filter", "shape": [3, 3, 1, 1], "dtype": "float32"}, {"name": "model_40/tf.nn.convolution_111/convolution/filter", "shape": [3, 3, 1, 1], "dtype": "float32"}, {"name": "model_40/tf.nn.convolution_112/convolution/filter", "shape": [3, 3, 1, 1], "dtype": "float32"}, {"name": "model_40/tf.nn.convolution_113/convolution/filter", "shape": [3, 3, 1, 1], "dtype": "float32"}, {"name": "model_40/tf.nn.convolution_114/convolution/filter", "shape": [3, 3, 1, 1], "dtype": "float32"}, {"name": "model_40/tf.nn.convolution_115/convolution/filter", "shape": [3, 3, 1, 1], "dtype": "float32"}, {"name": "model_40/tf.nn.convolution_116/convolution/filter", "shape": [3, 3, 1, 1], "dtype": "float32"}, {"name": "model_40/tf.nn.convolution_117/convolution/filter", "shape": [3, 3, 1, 1], "dtype": "float32"}, {"name": "model_40/tf.nn.convolution_118/convolution/filter", "shape": [3, 3, 1, 1], "dtype": "float32"}, {"name": "model_40/tf.nn.convolution_119/convolution/filter", "shape": [3, 3, 1, 1], "dtype": "float32"}, {"name": "model_40/tf.nn.convolution_120/convolution/filter", "shape": [3, 3, 1, 1], "dtype": "float32"}, {"name": "model_40/tf.nn.convolution_121/convolution/filter", "shape": [3, 3, 1, 1], "dtype": "float32"}, {"name": "model_40/tf.nn.convolution_122/convolution/filter", "shape": [3, 3, 1, 1], "dtype": "float32"}, {"name": "model_40/tf.nn.convolution_123/convolution/filter", "shape": [3, 3, 1, 1], "dtype": "float32"}, {"name": "model_40/tf.nn.convolution_124/convolution/filter", "shape": [3, 3, 1, 1], "dtype": "float32"}, {"name": "model_40/tf.nn.convolution_125/convolution/filter", "shape": [3, 3, 1, 1], "dtype": "float32"}, {"name": "model_40/tf.nn.convolution_126/convolution/filter", "shape": [3, 3, 1, 1], "dtype": "float32"}, {"name": "model_40/tf.nn.convolution_127/convolution/filter", "shape": [3, 3, 1, 1], "dtype": "float32"}, {"name": "model_40/tf.nn.convolution_128/convolution/filter", "shape": [3, 3, 1, 1], "dtype": "float32"}, {"name": "model_40/tf.nn.convolution_129/convolution/filter", "shape": [3, 3, 1, 1], "dtype": "float32"}, {"name": "model_40/tf.nn.convolution_130/convolution/filter", "shape": [3, 3, 1, 1], "dtype": "float32"}, {"name": "model_40/tf.nn.convolution_131/convolution/filter", "shape": [3, 3, 1, 1], "dtype": "float32"}, {"name": "model_40/tf.nn.convolution_132/convolution/filter", "shape": [3, 3, 1, 1], "dtype": "float32"}, {"name": "model_40/tf.nn.convolution_133/convolution/filter", "shape": [3, 3, 1, 1], "dtype": "float32"}, {"name": "model_40/tf.nn.convolution_134/convolution/filter", "shape": [3, 3, 1, 1], "dtype": "float32"}, {"name": "model_40/tf.nn.convolution_135/convolution/filter", "shape": [3, 3, 1, 1], "dtype": "float32"}, {"name": "model_40/tf.nn.convolution_136/convolution/filter", "shape": [3, 3, 1, 1], "dtype": "float32"}, {"name": "model_40/tf.nn.convolution_137/convolution/filter", "shape": [3, 3, 1, 1], "dtype": "float32"}, {"name": "model_40/tf.nn.convolution_138/convolution/filter", "shape": [3, 3, 1, 1], "dtype": "float32"}, {"name": "model_40/tf.nn.convolution_139/convolution/filter", "shape": [3, 3, 1, 1], "dtype": "float32"}, {"name": "model_40/tf.nn.convolution_140/convolution/filter", "shape": [3, 3, 1, 1], "dtype": "float32"}, {"name": "model_40/tf.nn.convolution_141/convolution/filter", "shape": [3, 3, 1, 1], "dtype": "float32"}, {"name": "model_40/tf.nn.convolution_142/convolution/filter", "shape": [3, 3, 1, 1], "dtype": "float32"}, {"name": "model_40/tf.nn.convolution_143/convolution/filter", "shape": [3, 3, 1, 1], "dtype": "float32"}, {"name": "model_40/tf.nn.convolution_144/convolution/filter", "shape": [3, 3, 1, 1], "dtype": "float32"}, {"name": "model_40/tf.nn.convolution_145/convolution/filter", "shape": [3, 3, 1, 1], "dtype": "float32"}, {"name": "model_40/tf.nn.convolution_146/convolution/filter", "shape": [3, 3, 1, 1], "dtype": "float32"}, {"name": "model_40/tf.nn.convolution_147/convolution/filter", "shape": [3, 3, 1, 1], "dtype": "float32"}, {"name": "model_40/tf.nn.convolution_148/convolution/filter", "shape": [3, 3, 1, 1], "dtype": "float32"}, {"name": "model_40/tf.nn.convolution_149/convolution/filter", "shape": [3, 3, 1, 1], "dtype": "float32"}, {"name": "model_40/tf.nn.convolution_150/convolution/filter", "shape": [3, 3, 1, 1], "dtype": "float32"}, {"name": "model_40/tf.nn.convolution_151/convolution/filter", "shape": [3, 3, 1, 1], "dtype": "float32"}, {"name": "model_40/tf.split/split/split_dim", "shape": [], "dtype": "int32"}, {"name": "model_40/tf.strided_slice_6/ones_like/tensor", "shape": [4], "dtype": "int32"}, {"name": "model_40/tf.strided_slice_6/StridedSlice/end", "shape": [4], "dtype": "int32"}, {"name": "model_40/tf.strided_slice_6/ones_like", "shape": [4], "dtype": "int32"}, {"name": "model_40/tf.nn.convolution_18/convolution/filter", "shape": [1, 1, 128, 32], "dtype": "float32"}, {"name": "model_40/tf.math.add_30/Add/y", "shape": [32], "dtype": "float32"}, {"name": "model_40/tf.compat.v1.nn.depthwise_conv2d_6/depthwise/filter_in", "shape": [5, 5, 32, 1], "dtype": "float32"}, {"name": "model_40/tf.math.add_31/Add/y", "shape": [32], "dtype": "float32"}, {"name": "model_40/tf.concat_9/concat/axis", "shape": [], "dtype": "int32"}, {"name": "model_40/tf.nn.convolution_19/convolution/filter", "shape": [1, 1, 64, 64], "dtype": "float32"}, {"name": "model_40/tf.math.add_32/Add/y", "shape": [64], "dtype": "float32"}, {"name": "model_40/tf.compat.v1.nn.depthwise_conv2d_7/depthwise/filter_in", "shape": [5, 5, 64, 1], "dtype": "float32"}, {"name": "model_40/tf.math.add_33/Add/y", "shape": [64], "dtype": "float32"}, {"name": "model_40/tf.concat_10/concat/axis", "shape": [], "dtype": "int32"}, {"name": "model_40/tf.strided_slice_4/ones_like/tensor", "shape": [4], "dtype": "int32"}, {"name": "model_40/tf.strided_slice_4/StridedSlice/end", "shape": [4], "dtype": "int32"}, {"name": "model_40/tf.strided_slice_4/ones_like", "shape": [4], "dtype": "int32"}, {"name": "model_40/tf.nn.convolution_13/convolution/filter", "shape": [1, 1, 64, 16], "dtype": "float32"}, {"name": "model_40/tf.math.add_21/Add/y", "shape": [16], "dtype": "float32"}, {"name": "model_40/tf.compat.v1.nn.depthwise_conv2d_4/depthwise/filter_in", "shape": [5, 5, 16, 1], "dtype": "float32"}, {"name": "model_40/tf.math.add_22/Add/y", "shape": [16], "dtype": "float32"}, {"name": "model_40/tf.concat_6/concat/axis", "shape": [], "dtype": "int32"}, {"name": "model_40/tf.nn.convolution_14/convolution/filter", "shape": [1, 1, 32, 32], "dtype": "float32"}, {"name": "model_40/tf.math.add_23/Add/y", "shape": [32], "dtype": "float32"}, {"name": "model_40/tf.compat.v1.nn.depthwise_conv2d_5/depthwise/filter_in", "shape": [5, 5, 32, 1], "dtype": "float32"}, {"name": "model_40/tf.math.add_24/Add/y", "shape": [32], "dtype": "float32"}, {"name": "model_40/tf.concat_7/concat/axis", "shape": [], "dtype": "int32"}, {"name": "model_40/tf.strided_slice_2/ones_like/tensor", "shape": [4], "dtype": "int32"}, {"name": "model_40/tf.strided_slice_2/StridedSlice/end", "shape": [4], "dtype": "int32"}, {"name": "model_40/tf.strided_slice_2/ones_like", "shape": [4], "dtype": "int32"}, {"name": "model_40/tf.nn.convolution_8/convolution/filter", "shape": [1, 1, 32, 8], "dtype": "float32"}, {"name": "model_40/tf.math.add_12/Add/y", "shape": [8], "dtype": "float32"}, {"name": "model_40/tf.compat.v1.nn.depthwise_conv2d_2/depthwise/filter_in", "shape": [5, 5, 8, 1], "dtype": "float32"}, {"name": "model_40/tf.math.add_13/Add/y", "shape": [8], "dtype": "float32"}, {"name": "model_40/tf.concat_3/concat/axis", "shape": [], "dtype": "int32"}, {"name": "model_40/tf.nn.convolution_9/convolution/filter", "shape": [1, 1, 16, 16], "dtype": "float32"}, {"name": "model_40/tf.math.add_14/Add/y", "shape": [16], "dtype": "float32"}, {"name": "model_40/tf.compat.v1.nn.depthwise_conv2d_3/depthwise/filter_in", "shape": [5, 5, 16, 1], "dtype": "float32"}, {"name": "model_40/tf.math.add_15/Add/y", "shape": [16], "dtype": "float32"}, {"name": "model_40/tf.concat_4/concat/axis", "shape": [], "dtype": "int32"}, {"name": "model_40/tf.strided_slice/ones_like/tensor", "shape": [4], "dtype": "int32"}, {"name": "model_40/tf.strided_slice/StridedSlice/end", "shape": [4], "dtype": "int32"}, {"name": "model_40/tf.strided_slice/ones_like", "shape": [4], "dtype": "int32"}, {"name": "model_40/tf.nn.convolution_3/convolution/filter", "shape": [1, 1, 16, 4], "dtype": "float32"}, {"name": "model_40/tf.math.add_3/Add/y", "shape": [4], "dtype": "float32"}, {"name": "model_40/tf.compat.v1.nn.depthwise_conv2d/depthwise/filter_in", "shape": [5, 5, 4, 1], "dtype": "float32"}, {"name": "model_40/tf.math.add_4/Add/y", "shape": [4], "dtype": "float32"}, {"name": "model_40/tf.concat/concat/axis", "shape": [], "dtype": "int32"}, {"name": "model_40/tf.nn.convolution_4/convolution/filter", "shape": [1, 1, 8, 8], "dtype": "float32"}, {"name": "model_40/tf.math.add_5/Add/y", "shape": [8], "dtype": "float32"}, {"name": "model_40/tf.compat.v1.nn.depthwise_conv2d_1/depthwise/filter_in", "shape": [5, 5, 8, 1], "dtype": "float32"}, {"name": "model_40/tf.math.add_6/Add/y", "shape": [8], "dtype": "float32"}, {"name": "model_40/tf.concat_1/concat/axis", "shape": [], "dtype": "int32"}, {"name": "model_40/tf.compat.v1.pad/Pad/paddings", "shape": [4, 2], "dtype": "int32"}, {"name": "model_40/tf.nn.convolution/convolution/filter", "shape": [3, 3, 3, 16], "dtype": "float32"}, {"name": "model_40/tf.math.add/Add/y", "shape": [16], "dtype": "float32"}, {"name": "model_40/tf.compat.v1.pad_1/Pad/paddings", "shape": [4, 2], "dtype": "int32"}, {"name": "model_40/tf.nn.convolution_1/convolution/filter", "shape": [3, 3, 16, 32], "dtype": "float32"}, {"name": "model_40/tf.math.add_1/Add/y", "shape": [32], "dtype": "float32"}, {"name": "model_40/tf.nn.convolution_2/convolution/filter", "shape": [1, 1, 32, 32], "dtype": "float32"}, {"name": "model_40/tf.math.add_2/Add/y", "shape": [32], "dtype": "float32"}, {"name": "model_40/tf.strided_slice_1/ones_like/tensor", "shape": [4], "dtype": "int32"}, {"name": "model_40/tf.strided_slice_1/StridedSlice/end", "shape": [4], "dtype": "int32"}, {"name": "model_40/tf.strided_slice_1/ones_like", "shape": [4], "dtype": "int32"}, {"name": "model_40/tf.concat_2/concat/axis", "shape": [], "dtype": "int32"}, {"name": "model_40/tf.nn.convolution_5/convolution/filter", "shape": [1, 1, 48, 64], "dtype": "float32"}, {"name": "model_40/tf.math.add_9/Add/y", "shape": [64], "dtype": "float32"}, {"name": "model_40/tf.compat.v1.pad_2/Pad/paddings", "shape": [4, 2], "dtype": "int32"}, {"name": "model_40/tf.nn.convolution_6/convolution/filter", "shape": [3, 3, 64, 64], "dtype": "float32"}, {"name": "model_40/tf.math.add_10/Add/y", "shape": [64], "dtype": "float32"}, {"name": "model_40/tf.nn.convolution_7/convolution/filter", "shape": [1, 1, 64, 64], "dtype": "float32"}, {"name": "model_40/tf.math.add_11/Add/y", "shape": [64], "dtype": "float32"}, {"name": "model_40/tf.strided_slice_3/ones_like/tensor", "shape": [4], "dtype": "int32"}, {"name": "model_40/tf.strided_slice_3/StridedSlice/end", "shape": [4], "dtype": "int32"}, {"name": "model_40/tf.strided_slice_3/ones_like", "shape": [4], "dtype": "int32"}, {"name": "model_40/tf.concat_5/concat/axis", "shape": [], "dtype": "int32"}, {"name": "model_40/tf.nn.convolution_10/convolution/filter", "shape": [1, 1, 96, 128], "dtype": "float32"}, {"name": "model_40/tf.math.add_18/Add/y", "shape": [128], "dtype": "float32"}, {"name": "model_40/tf.compat.v1.pad_3/Pad/paddings", "shape": [4, 2], "dtype": "int32"}, {"name": "model_40/tf.nn.convolution_11/convolution/filter", "shape": [3, 3, 128, 128], "dtype": "float32"}, {"name": "model_40/tf.math.add_19/Add/y", "shape": [128], "dtype": "float32"}, {"name": "model_40/tf.nn.convolution_12/convolution/filter", "shape": [1, 1, 128, 128], "dtype": "float32"}, {"name": "model_40/tf.math.add_20/Add/y", "shape": [128], "dtype": "float32"}, {"name": "model_40/tf.strided_slice_5/ones_like/tensor", "shape": [4], "dtype": "int32"}, {"name": "model_40/tf.strided_slice_5/StridedSlice/end", "shape": [4], "dtype": "int32"}, {"name": "model_40/tf.strided_slice_5/ones_like", "shape": [4], "dtype": "int32"}, {"name": "model_40/tf.concat_8/concat/axis", "shape": [], "dtype": "int32"}, {"name": "model_40/tf.nn.convolution_15/convolution/filter", "shape": [1, 1, 192, 128], "dtype": "float32"}, {"name": "model_40/tf.math.add_27/Add/y", "shape": [128], "dtype": "float32"}, {"name": "model_40/tf.compat.v1.pad_4/Pad/paddings", "shape": [4, 2], "dtype": "int32"}, {"name": "model_40/tf.nn.convolution_16/convolution/filter", "shape": [3, 3, 128, 256], "dtype": "float32"}, {"name": "model_40/tf.math.add_28/Add/y", "shape": [256], "dtype": "float32"}, {"name": "model_40/tf.nn.convolution_17/convolution/filter", "shape": [1, 1, 256, 256], "dtype": "float32"}, {"name": "model_40/tf.math.add_29/Add/y", "shape": [256], "dtype": "float32"}, {"name": "model_40/tf.strided_slice_7/ones_like/tensor", "shape": [4], "dtype": "int32"}, {"name": "model_40/tf.strided_slice_7/StridedSlice/end", "shape": [4], "dtype": "int32"}, {"name": "model_40/tf.strided_slice_7/ones_like", "shape": [4], "dtype": "int32"}, {"name": "model_40/tf.concat_11/concat/axis", "shape": [], "dtype": "int32"}, {"name": "model_40/tf.nn.convolution_20/convolution/filter", "shape": [1, 1, 384, 256], "dtype": "float32"}, {"name": "model_40/tf.math.add_36/Add/y", "shape": [256], "dtype": "float32"}, {"name": "model_40/tf.nn.convolution_21/convolution/filter", "shape": [1, 1, 256, 128], "dtype": "float32"}, {"name": "model_40/tf.math.add_37/Add/y", "shape": [128], "dtype": "float32"}, {"name": "model_40/tf.concat_12/concat/axis", "shape": [], "dtype": "int32"}, {"name": "model_40/tf.nn.convolution_22/convolution/filter", "shape": [1, 1, 512, 256], "dtype": "float32"}, {"name": "model_40/tf.math.add_38/Add/y", "shape": [256], "dtype": "float32"}, {"name": "model_40/tf.nn.convolution_23/convolution/filter", "shape": [1, 1, 256, 256], "dtype": "float32"}, {"name": "model_40/tf.math.add_39/Add/y", "shape": [256], "dtype": "float32"}, {"name": "model_40/tf.strided_slice_9/StridedSlice/begin", "shape": [4], "dtype": "int32"}, {"name": "model_40/tf.strided_slice_9/StridedSlice/end", "shape": [4], "dtype": "int32"}, {"name": "model_40/tf.strided_slice_9/ones_like", "shape": [4], "dtype": "int32"}, {"name": "model_40/tf.nn.convolution_24/convolution/filter", "shape": [1, 1, 128, 256], "dtype": "float32"}, {"name": "model_40/tf.math.add_40/Add/y", "shape": [256], "dtype": "float32"}, {"name": "model_40/tf.compat.v1.transpose_30/transpose/perm", "shape": [4], "dtype": "int32"}, {"name": "model_40/tf.reshape_2/Reshape/shape", "shape": [4], "dtype": "int32"}, {"name": "model_40/tf.strided_slice_12/StridedSlice/begin", "shape": [4], "dtype": "int32"}, {"name": "model_40/tf.strided_slice_12/StridedSlice/end", "shape": [4], "dtype": "int32"}, {"name": "model_40/tf.strided_slice_12/ones_like", "shape": [4], "dtype": "int32"}, {"name": "model_40/tf.reshape_5/Reshape/shape", "shape": [4], "dtype": "int32"}, {"name": "model_40/tf.compat.v1.transpose_38/transpose/perm", "shape": [4], "dtype": "int32"}, {"name": "model_40/tf.nn.convolution_152/convolution/filter", "shape": [3, 3, 1, 1], "dtype": "float32"}, {"name": "model_40/tf.concat_13/concat/axis", "shape": [], "dtype": "int32"}, {"name": "model_40/tf.nn.convolution_153/convolution/filter", "shape": [1, 1, 128, 128], "dtype": "float32"}, {"name": "model_40/tf.math.add_44/Add/y", "shape": [128], "dtype": "float32"}, {"name": "model_40/tf.nn.convolution_154/convolution/filter", "shape": [1, 1, 128, 256], "dtype": "float32"}, {"name": "model_40/tf.math.add_47/Add/y", "shape": [256], "dtype": "float32"}, {"name": "model_40/tf.nn.convolution_155/convolution/filter", "shape": [1, 1, 256, 128], "dtype": "float32"}, {"name": "model_40/tf.concat_14/concat/axis", "shape": [], "dtype": "int32"}, {"name": "model_40/tf.nn.convolution_156/convolution/filter", "shape": [1, 1, 256, 256], "dtype": "float32"}, {"name": "model_40/tf.math.add_51/Add/y", "shape": [256], "dtype": "float32"}, {"name": "model_40/tf.concat_24/concat/axis", "shape": [], "dtype": "int32"}, {"name": "model_40/tf.nn.convolution_185/convolution/filter", "shape": [1, 1, 384, 256], "dtype": "float32"}, {"name": "model_40/tf.math.add_94/Add/y", "shape": [256], "dtype": "float32"}, {"name": "model_40/tf.strided_slice_20/ones_like/tensor", "shape": [4], "dtype": "int32"}, {"name": "model_40/tf.strided_slice_20/StridedSlice/end", "shape": [4], "dtype": "int32"}, {"name": "model_40/tf.strided_slice_20/ones_like", "shape": [4], "dtype": "int32"}, {"name": "model_40/tf.compat.v1.nn.depthwise_conv2d_17/depthwise/filter_in", "shape": [3, 3, 128, 1], "dtype": "float32"}, {"name": "model_40/tf.math.add_106/Add/y", "shape": [128], "dtype": "float32"}, {"name": "model_40/tf.concat_28/concat/axis", "shape": [], "dtype": "int32"}, {"name": "model_40/tf.nn.convolution_192/convolution/filter", "shape": [1, 1, 384, 256], "dtype": "float32"}, {"name": "model_40/tf.math.add_109/Add/y", "shape": [256], "dtype": "float32"}, {"name": "model_40/tf.math.reduce_mean/Mean/reduction_indices", "shape": [2], "dtype": "int32"}, {"name": "model_40/tf.compat.v1.transpose_115/transpose/perm", "shape": [4], "dtype": "int32"}, {"name": "model_40/tf.reshape_23/Reshape/shape", "shape": [3], "dtype": "int32"}, {"name": "model_40/tf.compat.v1.transpose_118/transpose/perm", "shape": [3], "dtype": "int32"}, {"name": "model_40/tf.compat.v1.nn.conv1d/conv1d/ExpandDims/dim", "shape": [], "dtype": "int32"}, {"name": "model_40/tf.compat.v1.nn.conv1d/conv1d/ExpandDims_1", "shape": [1, 3, 1, 1], "dtype": "float32"}, {"name": "model_40/tf.compat.v1.transpose_121/transpose/perm", "shape": [3], "dtype": "int32"}, {"name": "model_40/tf.reshape_26/Reshape/shape", "shape": [4], "dtype": "int32"}, {"name": "model_40/tf.compat.v1.transpose_124/transpose/perm", "shape": [4], "dtype": "int32"}, {"name": "model_40/tf.nn.convolution_193/convolution/filter", "shape": [3, 3, 256, 51], "dtype": "float32"}, {"name": "model_40/tf.math.add_110/Add/y", "shape": [51], "dtype": "float32"}, {"name": "model_40/tf.nn.convolution_195/convolution/filter", "shape": [3, 3, 51, 51], "dtype": "float32"}, {"name": "model_40/tf.math.add_113/Add/y", "shape": [51], "dtype": "float32"}, {"name": "model_40/tf.nn.convolution_198/convolution/filter", "shape": [1, 1, 51, 51], "dtype": "float32"}, {"name": "model_40/tf.math.add_116/Add/y", "shape": [51], "dtype": "float32"}, {"name": "model_40/tf.compat.v1.transpose_134/transpose/perm", "shape": [4], "dtype": "int32"}, {"name": "model_40/tf.reshape_29/Reshape/shape", "shape": [3], "dtype": "int32"}, {"name": "model_40/tf.concat_29/concat/axis", "shape": [], "dtype": "int32"}, {"name": "model_40/tf.reshape_32/Reshape/shape", "shape": [4], "dtype": "int32"}, {"name": "model_40/tf.strided_slice_22/StridedSlice/begin", "shape": [4], "dtype": "int32"}, {"name": "model_40/tf.strided_slice_22/StridedSlice/end", "shape": [4], "dtype": "int32"}, {"name": "model_40/tf.strided_slice_22/StridedSlice/strides", "shape": [4], "dtype": "int32"}, {"name": "model_40/tf.concat_31/concat/axis", "shape": [], "dtype": "int32"}, {"name": "model_40/tf.reshape_38/Reshape/shape", "shape": [3], "dtype": "int32"}, {"name": "model_40/output0/concat/axis", "shape": [], "dtype": "int32"}]}]}